models/LiPS/training_size-100/checkpoint.ckpt (torch, 678560 bytes, 600 tensors)

model.atom_embedding.linear.weight f4 [17, 3]
000000 25 14 d6 be 6e 01 87 be c5 7b 60 3e 06 8d ab be
       -0.41812244 -0.26368278 0.21922214 -0.3350603
000010 36 2c 60 be d4 85 e8 be 0b f5 e1 be 2d ca a8 be
       -0.21891865 -0.45414603 -0.44132265 -0.32966748
000020 50 bb 4f be 77 f6 a8 be ed cd e6 3d 43 6a 55 be
       -0.20286298 -0.33000538 0.11269746 -0.20841317
000030 33 c6 3b 3e 68 c1 c7 3e 72 dc bb 3e bc 88 e6 bd
       0.18337326 0.39014745 0.36691624 -0.11256549
000040 21 9f f6 3c ea a9 cd bd 59 d4 b9 3e 4f 14 9a 3e
       0.030105175 -0.10042174 0.3629482 0.3009362
000050 7a df d5 3e 7d 68 0c 3f 61 4d 00 3e 85 8b 08 3f
       0.41772062 0.54846936 0.12529518 0.5333789
000060 22 80 61 3d 00 f1 68 3d 8d 42 4f 3d f0 96 b6 3d
       0.055053838 0.05687046 0.050600577 0.08915508
000070 7f 9e 85 3e 2e cc 65 3e 57 ef e0 bd a6 73 7e be
       0.26097485 0.2244117 -0.109831505 -0.24848804
000080 28 9d e1 ba 07 2e 78 3e 2f a1 e0 be 14 96 5d 3d
       -0.0017212974 0.24236308 -0.43872973 0.054098204
000090 d0 b0 8d be 85 c0 c2 3e 8b 7b f7 3e f5 c4 9c 3e
       -0.2767396 0.38037506 0.48336443 0.30619016
0000a0 74 2e a1 3e d6 fb 8d 3e 2a 5e f5 be f8 89 33 3e
       0.31480753 0.27731198 -0.47923404 0.175331
0000b0 3d 1a e3 3e 21 ea 8d 3e 1e 13 d8 3e dc e1 f0 3e
       0.44355956 0.2771769 0.42202085 0.47047317
0000c0 35 aa 41 3e e2 e9 ba bd 86 3b b2 3e
       0.18912585 -0.09126641 0.34811038

model.atom_embedding.linear.bias f4 [17]
000000 63 c3 3b 3e 77 06 4c 3e 28 d7 67 be 2c 17 fb 3e
       0.18336253 0.19924341 -0.2264067 0.49041116
000010 6e 60 b0 be 77 19 1a 3d 0e a2 9c be 5a 77 23 bd
       -0.3444857 0.03762194 -0.30592388 -0.039908744
000020 0f 40 61 bd 73 aa 82 be c2 24 42 3e 82 e7 df be
       -0.05499273 -0.25520667 0.18959334 -0.43731314
000030 5f be 03 3f 35 70 d2 3c ca 62 cc bc c2 47 61 3c
       0.5146236 0.02568827 -0.02494945 0.013750019
000040 99 11 4d be
       -0.20026244

model.layers.0.mlp_mix_atom_feats.0.weight f4 [17, 17]
000000 34 4f 9d be 6b 6c a4 3b bf e2 21 be 0a f7 4c 3e
       -0.3072449 0.0050178072 -0.15809153 0.20016113
000010 01 c9 89 3e 17 65 87 3e d1 3b 00 be 00 0d 88 be
       0.26911166 0.26444313 -0.12522818 -0.26572418
000020 83 fc d6 3c cc 30 4a 3e 62 fe 44 be b9 10 ae bd
       0.026243454 0.19745177 -0.19237664 -0.08499283
000030 bf 2e fb 3d 3e f3 a8 3c df ce c6 3e 81 fc 95 3d
       0.122647755 0.0206238 0.38829705 0.07323552
000040 f8 f7 db 3c da c2 91 bc ea 53 f5 bc 8d 69 b5 be
       0.02685164 -0.017793108 -0.02994724 -0.3543209
000050 b6 99 3e 3e ed 0a 6d be 5a 6f 32 bc b2 60 d1 3d
       0.18613324 -0.23148699 -0.010890806 0.10223521
000060 b2 12 a7 3e e2 cd f0 3c f4 0c b6 bb bd df b2 bd
       0.3263145 0.029395048 -0.0055557434 -0.08734081
000070 df 2a 05 3e 5b f5 91 3e 73 d1 a0 3c 85 9a a8 be
       0.13004635 0.28507504 0.019631123 -0.3293039
000080 07 78 3d 3d b7 55 b7 3d 03 9c 68 be 26 ce 70 3e
       0.046257045 0.08951896 -0.22715764 0.2351614
000090 97 53 6f bb 7f 72 80 3d ed a4 85 3e 1e f0 c6 3e
       -0.003651833 0.062718384 0.2610239 0.3885507
0000a0 1f 93 8f be 11 06 5d bd 2e 5c 74 3c ad d6 b9 3c
       -0.28041932 -0.053960864 0.0149145555 0.022685373
0000b0 f0 e9 82 be ae 00 95 bd e2 f2 af 3d c7 2e 07 3d
       -0.25569105 -0.0727552 0.08591248 0.033003595
0000c0 6f d6 d0 3d 27 a6 38 bd d3 7a a9 be 39 f0 7e be
       0.1019715 -0.04508033 -0.3310152 -0.24896325
0000d0 a1 c4 8d bd 8b 7b e3 3c fc dc 51 be 4c 61 52 bd
       -0.069222696 0.02776887 -0.20494455 -0.05136232
0000e0 c7 db 95 3d d1 6b 07 be 2d c9 b6 bd d4 30 bc 3c
       0.0731731 -0.13224722 -0.0892509 0.022972502
0000f0 7f 52 2c be 65 56 05 be a0 31 ac 3e 1b bb 20 bd
       -0.16828345 -0.13021238 0.3363161 -0.039240938
000100 01 f3 a2 3c 72 e8 c9 be a4 21 c7 bd 41 0a bf bd
       0.019891264 -0.39435154 -0.09723213 -0.09328128
000110 77 8f 5e bd 49 bb 53 3e 45 23 ef 3d 4c b8 f9 3c
       -0.054336037 0.20676912 0.11676649 0.030483387
000120 48 12 c4 3d 6b 58 a3 bd 2c d2 98 3d 1d 17 02 be
       0.09573799 -0.07975849 0.07461962 -0.1270413
000130 51 48 96 bc 74 d5 1d 3e 54 02 8a be 83 84 62 bd
       -0.01834503 0.15413457 -0.269549 -0.055302154
000140 a9 96 97 be 44 06 85 be b5 ec 61 3e 2e b5 17 be
       -0.29607132 -0.25981343 0.22062953 -0.14815208
000150 26 e1 0f 3e 67 36 b1 be d6 4f cb 3c c2 8b e8 bd
       0.14050731 -0.34611818 0.024818342 -0.11354782
000160 79 3e 3b be ac 4f 6a be 29 c7 6a be f5 ab 0c 3e
       -0.1828555 -0.22881955 -0.22927536 0.13737471
000170 5f 8f be bc bd 12 31 3d 4e a8 65 3d ae 47 09 3e
       -0.023261724 0.04323076 0.05606871 0.1340625
000180 54 3b 83 3e 25 8d fe bc 08 96 04 bd 00 e4 c3 be
       0.256312 -0.031073162 -0.032369643 -0.38259888
000190 c0 83 61 be 0d 3b be 3d 7d 42 39 3c b9 20 28 3e
       -0.22022915 0.09288607 0.011307356 0.16418733
0001a0 60 d9 1b 3e 31 58 c7 bd 24 0f e7 3d fb 67 92 3e
       0.1521964 -0.09733618 0.11282185 0.28594956
0001b0 01 e3 a5 bd 45 1f d8 be 58 ee ac 3c 5a f5 db 3d
       -0.08099938 -0.42211357 0.021109745 0.107401565
0001c0 3e 49 5e be e3 8a aa 3e 60 e8 bd be 9b 21 6c be
       -0.21707627 0.33309087 -0.3709135 -0.23059694
0001d0 47 51 cd bd 59 9c 9f be 70 69 e3 bd e2 da d4 bd
       -0.10025268 -0.3117397 -0.11104095 -0.10393311
0001e0 67 08 24 3e df ac a8 bd e9 8d 18 bd 01 ee ce bd
       0.1601883 -0.082360975 -0.03724471 -0.101039894
0001f0 71 c4 06 bd 10 47 f8 bd 4a 5c 0d 3c c9 05 cd bd
       -0.032902185 -0.12122929 0.00862796 -0.10010869
000200 7c 96 81 3d 9f ea e3 bd 2e 69 15 3e 08 69 ca bd
       0.06327531 -0.11128735 0.14590904 -0.09883314
000210 32 7c 0a 3e a4 74 9e be 71 de ba 3d c5 68 31 bd
       0.13523939 -0.30948365 0.091244586 -0.043312807
000220 85 d7 c1 3d 29 af 0a bd c8 31 6a be 92 63 44 be
       0.09464935 -0.033858452 -0.22870553 -0.19178608
000230 9d 3b 52 be c6 3a a9 bd 1c 69 1d 3e a2 4e cd 3d
       -0.20530553 -0.08263163 0.15372127 0.10024764
000240 54 90 19 3d 69 68 91 be 02 89 fb 3d a6 c0 69 be
       0.037491158 -0.2839997 0.122819915 -0.22827396
000250 1f da b2 bd 16 95 50 3d 24 79 11 be 6f e1 3c 3e
       -0.087330095 0.05092343 -0.14206368 0.18445371
000260 30 35 f7 3c c7 ec ca be 66 21 26 3e 7f 4f 65 3e
       0.030176729 -0.39633772 0.16223678 0.22393607
000270 b4 b2 60 3d 7d 07 06 be 14 e2 9e 3c 18 65 36 bd
       0.054857925 -0.13088794 0.019394912 -0.044530004
000280 a2 16 b7 be bd 49 12 3c 8c 8d 20 3e 4e 24 8e be
       -0.35759455 0.008928713 0.15678996 -0.27762073
000290 bd 55 80 be f6 c8 c3 3c 17 e5 21 3e 0d c0 00 bf
       -0.25065413 0.023899537 0.15810047 -0.50293046
0002a0 4b fa 0d 3e b4 09 dc bd ca 80 66 3e 14 55 a0 3d
       0.1386501 -0.10744038 0.22510067 0.07828727
0002b0 09 f9 18 be 8f 03 4f 3e b3 8c c0 bd f6 60 85 bc
       -0.1493875 0.20216201 -0.09401836 -0.016281586
0002c0 42 ef 2e bd 46 8e 80 3d be 41 46 bd 9f 77 3b 3e
       -0.042708643 0.062771365 -0.04840254 0.1830735
0002d0 98 6a 08 3d f8 27 20 be 04 cd a6 3e 92 e3 82 bd
       0.03330478 -0.15640247 0.3257829 -0.06391062
0002e0 d9 24 55 3e 34 68 29 be cf 79 5c be 05 80 12 bd
       0.20814838 -0.16543657 -0.21530841 -0.03576662
0002f0 2d 55 20 3e 0b 7b 1a 3e f1 46 20 be e6 dd 81 3c
       0.15657492 0.15086 -0.15652062 0.01585288
000300 a7 44 44 be b6 92 b8 bd 41 73 4e 3e 71 97 34 bd
       -0.19166814 -0.09012358 0.20161153 -0.04408974
000310 26 d7 05 bd 7b 17 73 3e 0c 9a 00 3e 34 08 43 be
       -0.032675885 0.23739426 0.12558764 -0.19046098
000320 1a 48 36 be 5b 1d 8c be e8 13 98 bd e9 e6 87 3e
       -0.17800942 -0.27366146 -0.07425672 0.26543358
000330 be d5 c2 3e 49 d4 80 ba 46 27 1a 3e d7 cf 02 3c
       0.38053697 -0.0009828891 0.15054044 0.007984123
000340 fe 8d 32 3e 39 1a 95 bd 5b d3 4d be 9e b8 96 be
       0.17436978 -0.07280392 -0.20100157 -0.29437727
000350 2e 2b 1a bc 61 fe 63 3e 49 e7 f0 3d 29 f6 76 3e
       -0.009409709 0.22265007 0.11762864 0.2411734
000360 0d 89 4e 3e 80 c1 bb 3d e4 9a 7a 3d 78 3b 4f 3e
       0.20169468 0.091677666 0.06118287 0.2023753
000370 02 5c dd 3c 8c d0 5c 3d a5 65 06 be ef 58 0e 3d
       0.027021412 0.053909823 -0.13124712 0.034752782
000380 92 09 c9 3d 08 a7 21 bc 0d 0d 17 be a9 f9 41 be
       0.098162785 -0.0098664835 -0.14751072 -0.18942894
000390 2f a8 04 3e 0d 53 c7 bd d4 df 37 3e d1 db f3 3d
       0.12954782 -0.097326376 0.17956477 0.11907161
0003a0 25 5e b1 3e c7 22 26 be 32 90 2d 3e b4 51 fb 3e
       0.3464214 -0.16224204 0.16949537 0.49085772
0003b0 c3 e5 83 be 23 2f 1a 3d 82 d6 5e 3e 5b 7f b6 bd
       -0.25761232 0.03764261 0.21761516 -0.0891101
0003c0 3b 9a 56 3e 5f 93 c1 be 73 5c 56 bd fb 70 70 bd
       0.20957272 -0.37807748 -0.05233426 -0.058701497
0003d0 ed 38 9c 3d 0b 87 1d 3e 13 9c be bb e8 37 cd 3d
       0.07628045 0.15383546 -0.0058169453 0.10020429
0003e0 05 db a9 3d 8f 9c 7a 3e 74 55 bb bd 6e 95 67 be
       0.08293728 0.24473785 -0.09147158 -0.22615597
0003f0 a0 49 d4 3d 57 4a 18 be 30 59 24 3e 9c ec f4 bc
       0.10365605 -0.14872108 0.16049647 -0.02989798

model.layers.0.atom_moment.radial.c f4 [3, 3, 17, 9]
000000 64 1a 45 be 71 a7 d5 be f3 7e 18 bf a4 9d 56 3e
       -0.19248348 -0.4172931 -0.5956871 0.20958573
000010 a7 3f 72 3e 84 27 b5 3d bf 62 68 be e8 86 9d be
       0.23657094 0.08845428 -0.22693919 -0.30766988
000020 99 31 bf 3e ab 37 5b bd f3 7e 39 be c5 22 4a 3e
       0.37342528 -0.053519886 -0.18114834 0.19739826
000030 4d 4b 16 bc f3 68 75 3d 93 ba 53 be 02 65 03 be
       -0.009173227 0.05991454 -0.20676641 -0.128315
000040 55 77 f0 bd 05 8a f0 bd d4 18 56 3e d0 10 b2 3e
       -0.11741511 -0.11745075 0.20907909 0.34778452
000050 b1 93 e9 3e 41 20 78 be 52 35 9e be 74 e6 81 bd
       0.45620492 -0.24231054 -0.30900055 -0.063427836
000060 9f dc ac 3e 43 05 a1 be 6c 5d 63 be c3 d6 4f bd
       0.3376207 -0.31449327 -0.22203606 -0.050741922
000070 99 e7 07 bf 0e dd 62 3e f7 b5 0a 3f 1b fb db 3e
       -0.53087765 0.22154638 0.54183906 0.42965016
000080 39 bd c7 3e ce 18 d1 bd 82 23 f8 3d 85 28 36 3e
       0.39011553 -0.10209809 0.121161476 0.17788894
000090 9e ab 73 be 34 ec 34 be fc c1 73 3e 2e a2 11 3f
       -0.23795936 -0.1766823 0.23804468 0.5688809
0000a0 12 4c 14 3e a9 9e 7f be 5e f7 86 3d ec 03 84 3e
       0.14482144 -0.24962868 0.0659015 0.25784242
0000b0 b0 90 6c 3d 80 a7 d1 3e 72 38 1c 3e 6b 4d 1e bf
       0.057755172 0.40948105 0.15255907 -0.6183688
0000c0 c4 1a e3 bd ea ac ce bd db a6 8e 3e 1a ba 72 be
       -0.110890895 -0.100915745 0.27861676 -0.23703805
0000d0 dd 52 2f bf 2e ab 3f be 45 0a 58 be ee 20 71 3d
       -0.68485814 -0.18717644 -0.21097668 0.058869295
0000e0 9e 62 2a bf f8 3c c6 ba df c7 18 3f d0 5e 15 3f
       -0.6655673 -0.0015124371 0.5967998 0.583478
0000f0 70 26 a1 be 68 a8 61 bf 1f 68 12 3f ac ed 86 3d
       -0.31474638 -0.8814759 0.57190126 0.06588301
000100 56 4a d7 bd c9 7f 86 be 64 57 07 bf c4 2f 07 be
       -0.10512225 -0.26269367 -0.5286772 -0.13201815
000110 b9 6c be 3d 8c 6b 3f bd 42 65 cf be b9 94 10 bd
       0.09298081 -0.046733424 -0.4050694 -0.035298083
000120 23 6c e4 be 28 5a 93 3d 68 4c f5 3d e2 63 4c 3e
       -0.44613752 0.0719493 0.11977464 0.19959977
000130 73 ea 5a be 1a cb 48 be 6c cf 3f 3d c7 e0 df 3d
       -0.21378498 -0.19608727 0.046828672 0.10931545
000140 dd a2 49 be 69 14 54 3e 1d b0 a4 3d b9 34 ac be
       -0.19691034 0.20710911 0.080414034 -0.33633974
000150 f1 fb 00 bf e7 61 5a be c2 d5 8c be 44 b1 24 3e
       -0.5038443 -0.2132641 -0.27506834 0.16083246
000160 85 6a 60 3e 20 fd 24 3e 89 08 89 bd a4 2c 33 3e
       0.21915634 0.16112185 -0.06691081 0.17497498
000170 c7 d8 1d bf fa 27 b2 3c 59 c7 4c 3e 6f cd c1 3e
       -0.616589 0.021747578 0.1999792 0.37852046
000180 41 7d 38 3d 4e 14 95 3d 8f 50 57 be e4 ca 0c 3f
       0.045041326 0.072792634 -0.21026824 0.54997087
000190 41 d5 8d 3e 4d ad e7 be f5 0c 08 be fd 66 9a bd
       0.27701762 -0.45249406 -0.13286193 -0.07539175
0001a0 66 00 8b bd 6c bf 55 bb c0 ba e2 be a8 7b b6 3d
       -0.06787185 -0.0032615317 -0.44283104 0.08910304
0001b0 d8 9a e6 bc ec 21 aa be 28 d2 ba 3e d9 4d fa 3c
       -0.028150007 -0.33229005 0.36488461 0.030554699
0001c0 3d f0 ed be 9a 74 ec 3d 2d 83 07 3f 73 a8 13 3f
       -0.4647235 0.115456775 0.52934533 0.5767891
0001d0 82 21 29 3d 91 97 bd bd a9 a0 af be 8b 67 31 3f
       0.04129172 -0.092574246 -0.3430226 0.6929862
0001e0 81 68 6b 3d 7d e7 a7 bc 82 00 0c bf 5f 80 0e bd
       0.05747271 -0.020496124 -0.54688275 -0.034790393
0001f0 f9 ec 98 3e 03 93 19 be a2 92 16 3e a9 95 1c bf
       0.29868296 -0.14997487 0.14704373 -0.61165863
000200 3f 7f 16 bf ad 3c d6 bd d7 82 3a 3f 87 a6 70 3e
       -0.5878791 -0.10460792 0.72855896 0.23501025
000210 80 0f e3 be e3 68 9e bf 42 ba 85 3e 7b 75 93 3d
       -0.44347763 -1.2375759 0.26118666 0.07200142
000220 17 77 5a 3e f4 9b 96 3f 68 4d 99 3e 0d a3 cb be
       0.21334492 1.1766343 0.2994187 -0.39772835
000230 5e b9 11 bf 82 b2 d4 3e 18 cc f4 3e 64 50 cc be
       -0.5692347 0.4154244 0.4781196 -0.39905083
000240 35 9f cf be ec f2 3e be c3 38 1a 3f e4 52 94 bd
       -0.40551153 -0.18647355 0.6024286 -0.07242373
000250 4e 2a a7 be 4a 38 43 be 9b 85 fc 3d a7 39 b8 3e
       -0.32649463 -0.19064441 0.12330171 0.35981485
000260 8b 58 0d bd c2 11 6f 3d 99 da 38 bf cd 32 02 3e
       -0.03450827 0.058366545 -0.72208554 0.12714691
000270 0d 61 cc 3e e3 3d de 3e 43 b8 b0 3e de 72 1e bf
       0.39917794 0.4340659 0.3451558 -0.61894023
000280 9f c0 ff be 41 3d 97 be ea dc e9 3d a6 cf 27 3e
       -0.49951646 -0.2953892 0.11419089 0.16387805
000290 bc 00 d7 3e 2e fa 93 3e cb cc 97 bd 17 34 05 bf
       0.41992748 0.2890181 -0.07412108 -0.5203261
0002a0 ab ee c0 bd 5f c0 c2 bc 8f f7 10 3d 0a d4 27 be
       -0.09420522 -0.02377337 0.03539234 -0.1638948
0002b0 c7 91 7c be 66 41 b3 3e ed e7 b4 bd 2d 76 b2 be
       -0.24664985 0.35010833 -0.08833299 -0.34855786
0002c0 4c f7 00 3e 41 bb 8f 3e 03 b0 2e 3e 05 6f be bd
       0.12594336 0.2807255 0.1705933 -0.09298519
0002d0 d4 5c 79 ba 51 37 e3 be 98 5b a9 bd ba 22 ad 3e
       -0.00095124287 -0.4437814 -0.08269423 0.33815557
0002e0 e7 e5 f5 3d 35 e9 e3 3d 92 15 35 bc 10 7f 7a 3e
       0.12006741 0.11128465 -0.011052506 0.24462533
0002f0 e5 2f 7d be d4 07 2e bf fc 62 8a be fd 09 3c 3f
       -0.24725302 -0.67980695 -0.27028644 0.7345274
000300 46 95 f3 3e 44 85 33 3e ed de 2d bf 14 4e 9b be
       0.47574824 0.17531306 -0.6791828 -0.30333006
000310 e1 8d f6 3e f5 c1 39 3e 90 62 9f 3e 63 9d 4f be
       0.4815512 0.18140395 0.31129885 -0.20274882
000320 ed eb 7d bd 7a 51 df bd ae 06 c3 3e 0e 63 ea 3e
       -0.061992574 -0.10904212 0.38091034 0.45778698
000330 e8 36 39 bf 00 11 1e bf 01 05 b3 be 85 3e 64 3d
       -0.72349405 -0.6174469 -0.34964755 0.055723686
000340 ea 67 5b be 17 8e d7 be 0a 8b 0c be 9a ff 9f 3e
       -0.21426359 -0.42100593 -0.13724914 0.31249696
000350 15 cf 08 3f 32 46 dd bd 59 4f 63 bf 8a 9d ad be
       0.5344098 -0.10804404 -0.8879295 -0.33909255
000360 5b 78 7a 3d 99 85 82 bd 7e 0a 3b bf 57 7e 0f bf
       0.061149936 -0.06373138 -0.73062885 -0.56052154
000370 d2 ba 5a 3e ee 63 bb 3e f1 0a 8d 3e 00 92 03 bf
       0.21360329 0.36599678 0.2754741 -0.51394653
000380 61 c6 d4 be 0e 10 e9 be a7 78 85 bd dc 0f 09 3f
       -0.415576 -0.4552006 -0.06517153 0.53539824
000390 3f 0a 6b 3e aa fc fa be 0b ec eb be 26 46 81 3e
       0.22953127 -0.49020892 -0.46078524 0.25248832
0003a0 ad 98 81 3e 66 be 6b 3e 3d 58 05 3f a3 9d d5 3e
       0.25311795 0.2302185 0.52087766 0.4172183
0003b0 e4 4f ae be 1b 66 6a be 9a be 37 bf 50 23 75 3d
       -0.34045327 -0.22890513 -0.7177521 0.05984813
0003c0 f7 ff 66 be 42 ea 38 3f d8 49 a7 3e 8c 12 f7 3e
       -0.2255858 0.7223245 0.32673526 0.48256338
0003d0 a3 78 05 3d b2 cc 2a bf f1 c3 b2 be 33 80 c3 be
       0.03258575 -0.6671859 -0.34915116 -0.38183746
0003e0 02 ae 05 3f 86 39 76 be 07 06 33 3c 30 cf f6 bd
       0.5221864 -0.24045381 0.01092673 -0.12051237
0003f0 2d b7 d1 3d 1d b4 bc bc de c5 e4 be 58 16 a2 bd
       0.10240016 -0.023035103 -0.4468221 -0.07914418

model.layers.0.atom_moment.radial_mlp.0_0_0.layers.0.weight f4 [16, 17]
000000 26 76 f3 3e f0 08 8a 3d c4 1c 23 be d8 01 db bd
       0.47551078 0.06739986 -0.15928942 -0.10693711
000010 a2 fa 91 bb 86 cc 0a 3f dd e0 ee 3e 49 c5 57 3e
       -0.0044549266 0.5421833 0.46655932 0.21071352
000020 2a 2a af be f5 d2 4b 3e 61 aa ab bd d9 f9 0d bf
       -0.34211856 0.19904692 -0.083821066 -0.5545936
000030 58 48 b7 be 4a 10 bd be 37 68 c4 3e 19 ce b9 be
       -0.3579738 -0.3692649 0.3836076 -0.36290053
000040 9c c2 e1 be 5e a5 f8 bd 78 58 55 3e 8a 8f 11 3f
       -0.44093788 -0.12140916 0.2083453 0.5685965
000050 ce c8 ef 3e 8a 18 d6 3e d7 70 57 3e c2 ea 34 3d
       0.4683289 0.41815597 0.21039139 0.044169195
000060 bd 07 64 3e bb 9c 0b be 51 9f 11 be 55 d5 fa be
       0.22268577 -0.13634007 -0.1422093 -0.48990884
000070 07 62 07 bf f7 b0 aa be 26 fe 8c 3e 40 d3 ce 3d
       -0.5288395 -0.33338138 0.2753765 0.100988865
000080 44 3e 4c bd 79 76 6d bd 39 89 18 be 26 a8 00 3f
       -0.04986407 -0.057974312 -0.14896096 0.50256574
000090 58 18 39 3e 1f 2e 8e 3d c1 47 88 3e 26 05 fe be
       0.18075693 0.06942391 0.26617244 -0.49613303
0000a0 ad e3 b4 3c 2b 8b 8f 3e 45 7e 75 bd dc c6 65 be
       0.02208122 0.28035864 -0.059934873 -0.2243914
0000b0 4b 16 3f be 1a 9e be bd cf bb a5 3e 74 2f fb 3e
       -0.18660848 -0.09307499 0.3236985 0.4905964
0000c0 c8 15 8c 3c 0c d9 a2 3d d3 ac 96 bd 87 4e 47 be
       0.01710023 0.07951555 -0.07357182 -0.1946355
0000d0 29 d7 ec bd 08 fe 56 3e f5 7f 0d bd 93 b7 33 bf
       -0.11564476 0.20995343 -0.034545857 -0.7020199
0000e0 01 68 12 3e cd 4a 2b 3e 9d 58 fb 3e 15 d9 c3 be
       0.14297487 0.16727753 0.49091044 -0.38251558
0000f0 09 f3 d3 3d a2 c3 a6 3e c1 03 f2 3d 37 f0 40 be
       0.1034909 0.3257113 0.11817122 -0.18841635
000100 56 32 e3 be cc 9d 41 3e 53 d4 a7 bd c6 55 a6 be
       -0.4437434 0.18907851 -0.081947945 -0.32487315
000110 48 ad 8d bc 8c fd a2 be d0 08 68 be 4c cc a0 3d
       -0.017294541 -0.31834066 -0.22659612 0.078514665
000120 8b bf ef be de 6f c1 bd 07 a8 a3 3e 43 0d 97 3e
       -0.46825823 -0.09445165 0.31964132 0.29502305
000130 87 e7 c6 3d ac b0 7f be 58 cb b7 bd 90 b0 19 3e
       0.09712129 -0.24969739 -0.089743316 0.1500876
000140 1e b7 d0 3e 1f 10 80 be 6b e6 08 3f e7 fc cc be
       0.40764707 -0.250123 0.5347659 -0.400367
000150 10 6c e2 be 7b 8b c7 3d 53 65 01 be 50 53 82 3d
       -0.4422307 0.09743401 -0.12636308 0.06363547
000160 4d d7 8d 3d 94 92 6b be 7e 41 83 3d 15 88 9c 3e
       0.06925831 -0.23005134 0.06408976 0.30572572
000170 56 cd 98 3e 18 01 11 3e 7a 48 da bd 08 2f e2 bd
       0.2984416 0.14160573 -0.10658355 -0.11044127
000180 6f f3 d0 3d 71 8e f3 3d 34 64 05 bf 99 6c c1 3e
       0.10202681 0.11892403 -0.5210602 0.37778166
000190 18 ee 6f be 7c 12 3c 3d 2b 1f 0a be 46 7e 27 3f
       -0.2343067 0.045916066 -0.13488452 0.6542705
0001a0 a2 ce 9e 3e 9c 7d 5e 3e cd c7 87 3e 4d 98 93 3d
       0.31017023 0.21727604 0.26519623 0.072067834
0001b0 c6 13 65 3e da 11 94 3e 16 8b 04 bf e1 41 d9 be
       0.22370824 0.2891987 -0.5177473 -0.42433074
0001c0 26 c1 02 bf 6f d9 a5 be 29 ef 8e bd e7 73 1f 3e
       -0.5107597 -0.3239245 -0.0697921 0.15571557
0001d0 e2 25 0f be 09 7e ab 3d 34 09 8e bd 8e e7 18 be
       -0.13979295 0.08373649 -0.06935349 -0.14932081
0001e0 45 f2 cc 3e 86 ec cd 3e 79 e6 d9 3e 65 bb cc 3e
       0.40028587 0.40219516 0.4255865 0.3998672
0001f0 fc 67 51 bd 27 02 22 3e 41 f9 ca 3e 76 72 81 bd
       -0.051124558 0.15821134 0.3964329 -0.0632066
000200 10 62 a6 be 04 5a 8a be 5a a4 a4 be 48 9c 0a 3e
       -0.3249669 -0.270218 -0.3215664 0.13536179
000210 4f b7 0f 3e 01 a1 0a 3e 16 b1 6d 3e b5 d1 68 be
       0.1403477 0.1353798 0.23212084 -0.22736247
000220 1c 32 82 3e c6 aa 1b 3e 95 f3 18 3e 2a a9 30 3e
       0.25428855 0.15201864 0.14936669 0.17252031
000230 7a 98 82 be 36 43 9c 3e da fa 48 3e 46 49 5b 3e
       -0.25506955 0.30520028 0.19626942 0.2141467
000240 88 d5 41 be 58 c8 88 be 6e 22 14 3e c8 eb 89 3d
       -0.18929112 -0.2671535 0.14466259 0.06734425
000250 94 0d 46 be b7 9a 55 be 58 6e 97 3e 53 c1 00 bf
       -0.19341117 -0.208598 0.29576373 -0.5029499
000260 1a 85 fa be 67 f6 d9 3e 53 e2 3c 3e 48 6e 6a 3d
       -0.48929673 0.42570803 0.18445711 0.05723408
000270 b6 72 8e 3d 26 f6 4a be 74 19 11 3f 5b 4c 07 3f
       0.06955473 -0.1982046 0.56679463 0.52850884
000280 4c 98 78 3e 31 cf 61 3d 6e 1c 8d be 59 5f c7 3d
       0.24276847 0.055129234 -0.27560753 0.09734983
000290 92 73 a4 bd 67 b9 97 be 86 4e a9 bd 20 fb f2 3d
       -0.08029856 -0.29633638 -0.0826693 0.118643045
0002a0 1d e3 be be df a4 a9 be 07 94 99 be 08 8d 1e bb
       -0.3728265 -0.331336 -0.29995748 -0.0024192948
0002b0 b2 76 ea 3e 71 67 17 be b2 95 fd be c4 36 25 3d
       0.45793682 -0.14785554 -0.4952827 0.04033543
0002c0 a4 59 86 bd 15 4e 67 3e 43 fc 46 3d aa 3f fe bd
       -0.06560066 0.2258838 0.04858042 -0.12414487
0002d0 47 aa df 3d c5 6a 67 bd 5b e1 2a bd 5e 7d 79 be
       0.1092115 -0.056498308 -0.041718822 -0.2436423
0002e0 75 77 20 3e a2 ab 6d be 3e 00 0d bf 0d 8d c0 bd
       0.15670569 -0.23210004 -0.55078495 -0.09401903
0002f0 0c 5f 0f 3f e9 9f c1 3e 6c ca 41 3e ec 2b ce 3e
       0.56004405 0.37817314 0.18924874 0.40267885
000300 72 d2 a6 3e bb d1 e4 bd 3f e6 ae 3d d0 4e 24 bf
       0.32582432 -0.111728154 0.0854001 -0.6418276
000310 3a 88 6f bd b9 6c fa be 5e 90 08 bf 26 a6 87 be
       -0.058479525 -0.48911074 -0.53345287 -0.2649395
000320 66 6a da 3d 82 88 3e be 86 ba 07 3e 42 28 e1 bd
       0.10664825 -0.18606761 0.13254747 -0.10994007
000330 da 5b 5f 3f 7e 5b ce be d3 6a ed be b6 4c a1 be
       0.8724953 -0.40304178 -0.46370563 -0.31503838
000340 71 17 24 3e a4 4a cd 3e aa 2f e4 3e 4e be 63 bf
       0.16024567 0.4009601 0.44567615 -0.88962257
000350 6e 55 bc bc 16 27 b3 3e e8 92 25 3e a7 46 04 3f
       -0.022989955 0.34990758 0.16169322 0.51670307
000360 22 5a d8 be d8 7f 1e 3f 74 f3 55 be e1 48 a5 be
       -0.42256266 0.61913824 -0.20893651 -0.32282165
000370 e7 5d 3e 3f d6 61 d5 be 72 07 9f 3e 2c c5 54 3e
       0.74362034 -0.41676205 0.31060368 0.2077834
000380 1e 02 07 3f e9 15 a3 3e c6 35 c0 be fa 63 5c 3c
       0.52737606 0.31852654 -0.37541026 0.013451571
000390 fd a1 b9 3d bc be 7a 3e 10 98 80 be 2f 6d 82 be
       0.090641 0.24486822 -0.25116014 -0.25473925
0003a0 32 fa 52 be a6 71 aa 3d 81 d9 6a be 1c a7 b6 3e
       -0.20603254 0.08322458 -0.22934534 0.3567437
0003b0 8a 3a 54 3e c1 0d a1 be e0 0c dd 3e 62 1c 1c 3f
       0.20725456 -0.31455806 0.43173885 0.6098081
0003c0 1f ff 83 3d 24 2d 92 bd 8c a2 44 3c 2b 87 89 3e
       0.06445145 -0.07137516 0.012001645 0.26860937
0003d0 d6 52 ff 3e 61 05 a3 3e 26 0f 04 bf f5 1e dd 3e
       0.49867886 0.3184004 -0.51585615 0.4318768
0003e0 d8 c9 48 3b 21 aa 91 be e1 d1 0c bf 59 4e 7d 3e
       0.0030637886 -0.2845011 -0.5500775 0.24736919
0003f0 b6 f3 ef 3d 35 5c bc be 58 fe 46 be 35 27 74 3d
       0.11716406 -0.36789098 -0.19432962 0.059607703

model.layers.0.atom_moment.radial_mlp.0_0_0.layers.0.bias f4 [16]
000000 0c df b3 be d5 a9 0a bc 84 3c b5 bc 6f 78 f7 3d
       -0.3513111 -0.008463343 -0.022123583 0.12083518
000010 46 6f 83 bd d7 03 d7 3c c8 7d 5d 3d c9 06 b6 bc
       -0.06417708 0.026246948 0.054075032 -0.022220032
000020 64 9f 3b be f9 a7 2f be c0 78 3d be 7f b9 8d bd
       -0.18322521 -0.1715392 -0.18503094 -0.06920146
000030 59 0c ef 3d 72 45 3d be 34 6c 2f bd 76 8b 41 be
       0.11672277 -0.18483523 -0.0428278 -0.18900856

model.layers.0.atom_moment.radial_mlp.0_0_0.layers.2.weight f4 [16, 16]
000000 06 ce 8a 3e 48 16 49 be 90 82 d3 bb 07 bf da 3e
       0.27110308 -0.19637406 -0.0064547732 0.42723867
000010 60 9b f8 3e d3 0d 46 3d 0f 61 8a be 1d 01 e2 be
       0.48556042 0.048353028 -0.27027175 -0.44141474
000020 35 1f a6 3e da 14 9d 3e a7 90 6d 3e 15 fc 6e be
       0.32445684 0.3067997 0.23199712 -0.23338349
000030 3b ad cf bf 1d 79 ac be 3a b2 06 3e 43 f4 85 3e
       -1.6224741 -0.33686152 0.13153926 0.2616292
000040 8d 6c ba 3e 5e 26 9a be db d2 b4 3b 70 11 87 3e
       0.36410943 -0.30107397 0.0055183 0.2638049
000050 4c 0d 12 be 70 0c e0 bc 13 17 c3 be cc fa 8d be
       -0.14262885 -0.02734968 -0.38103542 -0.27730405
000060 64 3a 15 3e a7 33 59 3e f3 a9 4a be 9e 10 a9 be
       0.14573056 0.2121111 -0.19791393 -0.3302049
000070 5b c9 01 bd d1 82 af be d3 81 2c 3e 01 6e 45 3e
       -0.03168617 -0.34279492 0.16846399 0.19280244
000080 ee 90 8d 3e 30 5c 4f be 7b 5b bf be 33 77 d7 3e
       0.27649635 -0.2025001 -0.37374482 0.4208313
000090 61 6a 8f 3d 79 c5 00 3c 5f 85 6d be c1 0b 11 bf
       0.07002712 0.007859581 -0.23195408 -0.5665856
0000a0 d3 54 0e 3e f0 d7 91 3c a2 e2 19 3e b4 22 ce bd
       0.13899545 0.017803162 0.1502786 -0.10065213
0000b0 7f 3c b5 be 9c 61 a8 be a2 b0 29 3e f0 85 58 3e
       -0.35397717 -0.3288697 0.16571286 0.21144843
0000c0 d0 ca 60 bd 7a e1 d0 bb d6 f7 2a be d9 85 9b 3e
       -0.054880917 -0.006374535 -0.16696104 0.30375555
0000d0 95 b7 eb 3e 72 6d 13 3e 98 c9 32 3e ed d6 51 3e
       0.460385 0.14397219 0.17459714 0.20492144
0000e0 1d ce 90 3e 6a ee 42 3e 59 78 f4 3d b0 d6 e0 be
       0.28282252 0.1903626 0.11937017 -0.43913794
0000f0 51 f9 9a 3b d0 7b 1a be b8 41 8d 3e b3 d4 9e bd
       0.004729428 -0.15086293 0.27589202 -0.07755413
000100 0b 99 86 3e e7 73 1f 3e 53 fa 35 be 93 21 7a bd
       0.26288638 0.15571557 -0.17771272 -0.061067175
000110 8a ec 6c be fa 82 86 bd 51 cf ad be 67 ee e8 be
       -0.23137107 -0.065679505 -0.33947232 -0.45494387
000120 93 83 83 3d 0b a6 7a bd 7d a1 92 be f5 dc 2c 3e
       0.0642158 -0.061193507 -0.2863883 0.16881163
000130 c9 e0 9f 3e a8 9c 8e 3e 2e af 25 3e cf 8e 37 3e
       0.31226185 0.27853894 0.16180107 0.17925571
000140 a9 a9 e6 be e1 51 82 3e 2b 10 71 be 1f 5f a0 3e
       -0.45051315 0.25453094 -0.23541324 0.31322572
000150 c5 4a 8b be a3 fa 26 3d 8d 6d 0b 3e 87 24 d8 be
       -0.27205482 0.04076637 0.13616009 -0.42215368
000160 bc a0 05 be 21 f1 d6 be ac 1d 2b be a5 67 9e 3e
       -0.13049597 -0.41980842 -0.16710538 0.3093845
000170 20 80 dc bd bb 56 15 bf 68 ef c4 be 87 33 89 bd
       -0.107666254 -0.58335465 -0.38463902 -0.06699281
000180 82 14 7f be d2 a6 e7 bd b2 a6 68 be 39 5d d8 3c
       -0.24910167 -0.11311115 -0.22719839 0.02641164
000190 57 2d df be 51 e0 98 be d7 3f f4 3e 48 7f 1f be
       -0.4358928 -0.2985864 0.47704956 -0.15575898
0001a0 d1 2f 6b 3e 99 7f 89 be f1 ac 74 be e5 11 2e 3e
       0.2296746 -0.26855162 -0.23894097 0.16999014
0001b0 80 82 c3 3e 71 42 44 bf 82 fc cf be 33 e8 c8 be
       0.381855 -0.7666388 -0.40622336 -0.39239654
0001c0 1c f7 09 bf 65 61 c9 3e cd 1b 92 bc 6b 7b 06 be
       -0.53892684 0.3933212 -0.017835522 -0.13133018
0001d0 76 31 6d bd 51 5f c3 3d 05 19 c7 3b f8 23 8d 3e
       -0.057908498 0.095396645 0.0060759806 0.27566504
0001e0 54 dc 27 be 8e 9a c4 be da a1 60 3e 11 19 db 3e
       -0.16392642 -0.38399166 0.21936741 0.42792562
0001f0 85 6a 91 3e b7 e0 f2 3e e0 8c 22 bf c2 62 01 bf
       0.2840158 0.4743707 -0.6349621 -0.5054132
000200 ff 4c 25 3f 57 97 8c bd 0c 0d f7 be 9f f2 75 3e
       0.6457061 -0.06864803 -0.4825214 0.24018334
000210 8f 8f 33 3e d8 bf 60 3e 32 45 b4 3d 36 91 2b 3e
       0.17535232 0.21948183 0.088022605 0.16754612
000220 5f ae 19 3f ae dd 3c 3f 8a f2 17 3f 0a 55 61 3e
       0.60031694 0.73775756 0.5935446 0.22005096
000230 68 74 8d be 7c cc c3 be 19 18 8b 3e 3a df bd 3e
       -0.27627873 -0.38241947 0.27166823 0.3708437
000240 22 28 36 3e 67 b9 cf be a6 76 de bd 08 d4 9a 3e
       0.17788747 -0.40571138 -0.10862474 0.30239892
000250 7c a5 b6 3e 78 eb ae 3e 52 b9 eb be 8f 4b fa bd
       0.3567313 0.34164023 -0.46039826 -0.12221443
000260 4b 37 80 3e d4 c4 e0 3e ca 5d 57 3e 19 f7 48 bf
       0.25042185 0.43900168 0.21031871 -0.7850204
000270 34 8f eb 3d 77 a7 44 be d3 ec 80 3d 9f f7 9f 3e
       0.11501923 -0.19204508 0.06295171 0.31243607
000280 9c fe 26 be b7 57 a6 be ff a5 25 be cc 2f 06 3e
       -0.16308063 -0.32488796 -0.16176604 0.1310417
000290 65 ef 98 bd ff 4e ec bd 64 29 77 be 90 71 c9 be
       -0.07467536 -0.11538505 -0.24136883 -0.39344454
0002a0 e3 63 ae 3e 97 34 a8 3e 54 d9 25 3e 98 46 90 bc
       0.34060583 0.32852623 0.16196185 -0.017611787
0002b0 da be da be 7d 5f d2 be 3f 0f 14 3e b1 59 6a 3e
       -0.42723733 -0.41088477 0.14458941 0.22885777
0002c0 3c 82 0b 3e 64 74 bb be ce c2 44 be f3 fc 1c 3e
       0.13623899 -0.36612236 -0.19214937 0.15330867
0002d0 b7 dd 4f bd 7c c1 ab 3d 65 4b ea 3d 4c ad 0d bf
       -0.050748553 0.083865136 0.114401616 -0.55342555
0002e0 be 9e d7 3c dc 74 ff bb 8c fe 4c 3d 79 96 6b bc
       0.026320811 -0.007795913 0.050047442 -0.014379137
0002f0 54 60 34 be 42 5a fb be d3 ca 2c 3e 51 39 0f 3e
       -0.17614871 -0.490923 0.16874246 0.13986708
000300 83 56 b1 bd df 0d 03 3d f3 8e 94 3d c5 93 65 be
       -0.08659079 0.03199565 0.07253828 -0.22419651
000310 b6 0e 8c bd e7 74 c7 3d 41 08 13 bd a6 48 7b be
       -0.068387434 0.09739094 -0.035896543 -0.24539432
000320 d8 7e a9 3e 22 36 b1 3e ca f1 47 3e 5c 27 af 3e
       0.33104587 0.34611613 0.19525829 0.34209716
000330 d0 3d c2 3d 8c b9 9a bd e0 39 51 bd 76 4f b2 3e
       0.09484446 -0.075549215 -0.051080585 0.3482625
000340 f8 70 30 bd c4 43 88 3e 5e 91 88 3e e1 4f f0 3e
       -0.043076485 0.266142 0.26673406 0.46935943
000350 3b a2 35 3e 57 ce 6e bc 00 e3 1c 3e f9 e4 c0 3e
       0.17737667 -0.014575562 0.15320969 0.37674692
000360 90 f9 a6 3e 1c fa b3 3e 6a f4 d7 3e 85 fe 81 3e
       0.32612276 0.35151756 0.4217866 0.25389495
000370 7f 4c ac bc ff ef dc bb 34 64 1a 3f d3 08 10 3f
       -0.02103257 -0.006742477 0.6030915 0.56263465
000380 fe b4 a8 3d ae 6c 76 bd c5 9f 1b bf 5e 56 1a be
       0.082376465 -0.06016224 -0.60790664 -0.15072009
000390 87 42 93 be 6b f5 2c be 33 eb 25 bf 47 c6 28 bf
       -0.28761694 -0.16890495 -0.6481201 -0.6592755
0003a0 ed 13 0c 3e 49 e1 92 3e a6 96 99 3e 19 94 ea bc
       0.13679476 0.28687504 0.29997748 -0.028635072
0003b0 05 dc 18 bf 95 eb fe be 4b 29 18 be 29 9c be 3e
       -0.59710723 -0.4978911 -0.14859502 0.37228516
0003c0 ce d8 99 3e 65 e8 c8 be 94 c2 8c be 64 84 35 3e
       0.3004822 -0.39239803 -0.274922 0.17726284
0003d0 b7 d0 71 3e a0 62 bd 3e e6 7b 01 bf b1 f7 91 be
       0.23614775 0.36989307 -0.5057968 -0.28509286
0003e0 8e 17 ca 3e ba ba d4 3e c3 e6 a8 3e 76 f3 b9 be
       0.39471096 0.4154871 0.32988557 -0.36318558
0003f0 ec b2 ab bf 7a fe 6e bd 07 d1 80 bd 06 c3 88 3e
       -1.3413978 -0.058348157 -0.06289869 0.2671129

model.layers.0.atom_moment.radial_mlp.0_0_0.layers.2.bias f4 [16]
000000 66 4f 94 3d ed bb 39 be e5 dd 81 3e 24 27 09 be
       0.072417066 -0.18138094 0.25364605 -0.13393837
000010 4b 29 4e 3c 19 90 6c bd 22 b0 03 be a9 fc 28 be
       0.012583087 -0.05775461 -0.12860158 -0.16502632
000020 94 e3 eb 3d f0 9a 46 bc 96 20 20 bc 45 66 f8 3d
       0.115180165 -0.012121901 -0.009773394 0.12128881
000030 e0 fc 25 3d 0f 80 85 3a 1b d4 f9 3c d5 36 23 3e
       0.040524364 0.0010185259 0.030496648 0.15938886

model.layers.0.atom_moment.radial_mlp.0_0_0.layers.4.weight f4 [17, 16]
000000 f6 76 0e 3e 11 7a d0 3d a3 9e 4f bd e4 62 e1 bd
       0.13912567 0.10179532 -0.050688397 -0.1100519
000010 76 f9 4f be 94 fe 1c bd 20 5d bc 3d a5 1c 0a 3f
       -0.20310006 -0.038328722 0.0919745 0.5394996
000020 39 c3 10 bf fc 23 0e be 26 d2 36 3e 07 23 2d 3e
       -0.56547886 -0.13880914 0.17853603 0.16907893
000030 f7 81 7c be ba d2 ec 3d 75 cf 05 3f fc 89 57 3e
       -0.24658953 0.115636304 0.5226968 0.2104873
000040 7b 98 9d 3c 6e 1a c8 be 32 c2 b6 be 02 9f 66 3c
       0.019237747 -0.39082664 -0.35695034 0.014075996
000050 eb 6f f3 bd 11 8d 2b be 6d 65 0f 3e b5 ea de be
       -0.11886581 -0.16753031 0.14003535 -0.43538442
000060 59 8b 6b 3e 51 50 0e bf 1d f6 29 be 89 86 9d 3d
       0.23002376 -0.55591303 -0.16597791 0.07691676
000070 7b 8a 86 3e f1 b8 dc 3e 51 71 99 3e 84 b4 e3 be
       0.26277527 0.4310985 0.29969266 -0.4447366
000080 b0 aa d1 3e 25 51 5f be cc 3c 72 3c 06 0c fd be
       0.40950537 -0.21808298 0.014785003 -0.49423236
000090 75 c5 97 3d 19 57 b3 be 79 26 9a be b3 6f d7 3d
       0.07410709 -0.35027388 -0.30107477 0.10519352
0000a0 df fc ad be 52 e4 f1 3d 50 7e 95 3d da d9 3a 3d
       -0.33981988 0.11811127 0.07299483 0.045617916
0000b0 ff e6 18 be 03 2d 41 3e 43 3b 68 bd 98 77 02 bd
       -0.14931868 0.18864827 -0.05669714 -0.031852335
0000c0 84 14 5f 3d 46 67 35 3e e3 06 89 be b4 dc b0 bd
       0.054462925 0.17715177 -0.26763067 -0.08635846
0000d0 42 c6 b5 3e 63 6b c1 bd 5e 9f 17 3e 5c 6c c3 be
       0.3550282 -0.094443105 0.14806888 -0.3816861
0000e0 c0 9f b7 3e 9b 11 75 3e 27 94 14 be 1f 6d 46 be
       0.35864067 0.23932497 -0.1450964 -0.19377564
0000f0 a7 35 bc be ce 89 f1 be d9 05 8b bd e2 68 c6 bc
       -0.36759683 -0.4717545 -0.06788225 -0.024219934
000100 c3 5c 7f 3e c4 a1 07 3e 27 63 e9 3e 3c c2 41 3e
       0.2493773 0.13245302 0.4558346 0.18921751
000110 b5 bf c9 bd cc 19 4a 3c 22 77 8a bd 07 c3 e0 3d
       -0.09851018 0.012335252 -0.06761004 0.109746985
000120 69 4a 8b be 01 36 ac 3e 8e 62 b9 3e b6 3d 49 3d
       -0.27205208 0.33634952 0.36208004 0.049131118
000130 f6 6d 4c 3e 73 19 98 be c6 25 e3 bc 46 ad 86 3e
       0.19963822 -0.29706916 -0.027727973 0.26304072
000140 98 8c 8e 3d bf 90 41 3e 10 51 19 be bf 79 20 3d
       0.0696041 0.18902873 -0.14972329 0.039178606
000150 a8 00 b2 be 84 af f0 3e b0 1a 72 3f 32 9e 45 be
       -0.34766126 0.47008908 0.9457197 -0.19298628
000160 7c 1b e9 3e 90 bb 2d bd 51 dd 63 3e ba f5 8d be
       0.4552878 -0.0424152 0.22252394 -0.27726537
000170 18 2f 89 be 9b a9 73 be 70 8f d3 be ea 56 3b be
       -0.26793742 -0.23795168 -0.41320372 -0.18294874
000180 d7 39 03 3f 67 68 a3 3e d4 80 f6 3e 2f f8 25 be
       0.5126013 0.3191559 0.48145163 -0.16207956
000190 27 50 7d 3c b0 61 96 3e 5e 81 a1 3e 86 d1 90 3e
       0.015461004 0.29371405 0.31544012 0.28284854
0001a0 60 4b 7f bd 09 6a 40 3e 18 32 85 3e 81 2d d6 3e
       -0.062327743 0.18790449 0.2601478 0.41831592
0001b0 46 32 62 3d 19 c4 a5 bc 00 35 7d 3e 56 3d de 3e
       0.055223726 -0.020235108 0.24727249 0.4340617
0001c0 5a bf 8a bd 83 54 9b be 47 15 02 3e 98 56 54 bd
       -0.06774779 -0.30337915 0.12703429 -0.051840395
0001d0 9f 8d 4f be 38 ac c0 3d 89 6b 52 be ba 12 a8 3e
       -0.20268868 0.09407848 -0.20548834 0.32826787
0001e0 8c b9 c5 3e bc de 87 3c 16 74 60 be 59 8b 80 be
       0.38618124 0.0165857 -0.21919283 -0.25106314
0001f0 88 c3 92 be 26 4a 86 bd 35 44 00 bf b9 7a b3 bd
       -0.28664804 -0.065571114 -0.50104076 -0.08763642
000200 33 28 0c be 81 ad 53 bd 42 39 69 be 0c 90 94 bd
       -0.1368721 -0.051679138 -0.22775748 -0.07254037
000210 28 67 38 3e 90 9d 6b be 69 92 99 be 0e 2b 4d bd
       0.18008101 -0.23009324 -0.29994515 -0.05008989
000220 7d 74 13 3e 1b 89 03 be 0f 26 1b be 35 a8 14 be
       0.14399906 -0.1284527 -0.15151237 -0.14517291
000230 8c 38 d4 3d cd e5 fb 3d 83 43 0d 3e 84 8b 33 be
       0.10362348 0.122996904 0.13795285 -0.1753369
000240 85 b1 98 be 8f 43 8a 3f 24 81 45 3e d0 56 07 3c
       -0.29822937 1.0801867 0.19287544 0.008260444
000250 98 d3 86 3f 94 ba 57 3f 3d dc cb 3d 52 d5 2e bf
       1.0533323 0.8426907 0.099541165 -0.6829425
000260 17 50 7b 3e f9 bf 55 3e 76 c4 8c be 44 17 60 3e
       0.2454227 0.20874013 -0.27493638 0.21883875
000270 69 1c 81 3e c8 c3 6f bf 44 31 f6 3e ab 2d bc bd
       0.25216988 -0.93658113 0.48084462 -0.09188398
000280 2c e9 aa 3e b6 90 32 3e 83 7d 8f bd f7 00 54 be
       0.3338102 0.17438015 -0.07006361 -0.20703493
000290 36 6b 51 be 34 98 00 be 30 3e 65 bf 6d a4 05 3f
       -0.20451054 -0.12558061 -0.89548016 0.5220402
0002a0 79 8d 00 be 9b fa 85 3d 3f 3b e3 3b b8 03 2b bd
       -0.12553968 0.0654194 0.006934553 -0.041751593
0002b0 ad bc 00 bc a1 fe 28 be fa 84 a6 3e 1d c2 34 3e
       -0.007857484 -0.16503383 0.32523328 0.17652173
0002c0 2d e2 8f 3e ea 27 75 bc 73 91 84 3e fc aa e0 3c
       0.28102246 -0.01496313 0.2589222 0.027425282
0002d0 91 ee 91 3c 8a a3 46 3d 14 27 c4 be b1 df 9b 3e
       0.017813953 0.048495807 -0.38311064 0.304441
0002e0 ef 0c a3 be 36 81 ed bd 20 05 30 be d6 6c 5a 3e
       -0.31845805 -0.11596911 -0.17189455 0.2133058
0002f0 d8 29 69 be d8 7e 03 3e 2a e7 d6 3e a2 c4 06 3e
       -0.22769868 0.12841356 0.4197324 0.13160947
000300 28 04 0f be 1f 3b 48 3e ac d7 e3 3d ee e7 ca 3e
       -0.13966429 0.19553803 0.111251205 0.39630073
000310 da e2 67 3e af 05 d5 bd 71 b7 ea be 63 fc e6 bd
       0.22645131 -0.10401475 -0.4584308 -0.11278608
000320 ac 79 bb 3e 41 c5 d0 3e 2e 9c 5a 3e 78 f7 b7 bd
       0.36616266 0.40775493 0.2134864 -0.08982748
000330 15 df 36 3e db 87 cb be 07 f6 91 bf 98 1d 32 be
       0.17858537 -0.39752087 -1.1403207 -0.17394102
000340 64 22 9f be e7 b9 97 be 2b aa 67 be a2 0d 10 3e
       -0.31080925 -0.2963402 -0.22623508 0.140677
000350 e8 2e 9a 3e b2 77 f1 bc 6f ad 81 3e 4e 90 6e be
       0.30113912 -0.02947602 0.25327632 -0.23297235
000360 0d 92 14 3e f7 54 f5 bd 63 50 62 be ce 86 34 be
       0.14508839 -0.119790964 -0.22100978 -0.17629549
000370 75 f2 ed 3d 1f ea 26 be e0 87 9c be 3a 43 9e 3d
       0.11618511 -0.16300248 -0.30572414 0.07727666
000380 5e 5f ec be d7 48 2a bd 5b 4f a3 be e2 7f 23 be
       -0.4616651 -0.04157337 -0.3189648 -0.15966752
000390 5a c6 52 be a3 7e 15 b9 a4 b1 ee 3d b7 3c 78 be
       -0.20583478 -0.00014256923 0.11654976 -0.24241911
0003a0 d0 f7 b3 3e 0a f2 1b be 5e 22 8b be fa 70 92 be
       0.35150003 -0.1522905 -0.27174658 -0.2860182
0003b0 b8 35 df bd 8a 4c 09 be 60 58 33 3e 0e 1a b9 be
       -0.10898918 -0.13408104 0.17514181 -0.3615269
0003c0 72 99 fa bd d9 e7 a9 3e 21 9d 5d 3e b1 90 d1 bd
       -0.122362986 0.33184698 0.21641971 -0.10232676
0003d0 37 1f cc be a0 6e a2 3f 28 a8 29 bf b4 79 15 be
       -0.39867565 1.269001 -0.6627221 -0.14597207
0003e0 13 c6 c0 3e 89 9e 9c be b3 94 19 bc c5 b1 b0 3e
       0.3765112 -0.30589703 -0.009373832 0.34510627
0003f0 fb ff 00 3e 89 bd 2c bf 1a 26 a9 3c 12 68 03 3e
       0.12597649 -0.6747671 0.020648051 0.12832668

model.layers.0.atom_moment.radial_mlp.0_0_0.layers.4.bias f4 [17]
000000 9b 06 8d 3e 5d 1b a2 bd dd 39 47 be 8e 90 9d 3d
       0.27544102 -0.079153754 -0.19455667 0.07693587
000010 e5 42 c6 3c 12 ff 28 bd 31 b3 31 bd 38 d8 b1 3d
       0.02420182 -0.04125888 -0.04338378 0.086838186
000020 22 e5 36 3c e8 72 d9 bd e2 ec 11 3e 72 bf 0a be
       0.011163028 -0.1061762 0.1425052 -0.13549593
000030 60 e9 87 bd 07 28 2f 3e ed cb 2e 3e 76 c8 53 3d
       -0.066363096 0.17105113 0.17069979 0.051704846
000040 08 ab c3 3d
       0.09554106

model.layers.0.atom_moment.radial_mlp.1_0_1.layers.0.weight f4 [16, 17]
000000 9f 82 47 be c2 84 ff 3e 1c 15 20 3f df 63 3c be
       -0.19483422 0.49905974 0.6253221 -0.18397473
000010 6e 00 9c 3f 42 d0 1d bf 41 50 c5 be 1d ba 1e bd
       1.2187631 -0.616459 -0.3853779 -0.03875171
000020 47 12 4a 3f b6 25 03 bf 87 8d de be 98 fa bf be
       0.7893414 -0.5122942 -0.43467352 -0.37495875
000030 e8 99 03 3f 33 1c 32 3e 19 ac d8 be 6a f9 b1 bd
       0.5140672 0.1739357 -0.423188 -0.0869015
000040 5d d9 50 3e d6 e7 90 be 26 20 cc 3e d1 49 9d 3e
       0.20395418 -0.28301877 0.39868277 0.3072038
000050 d7 69 18 3e 7c 49 b4 3e 54 06 87 3e 53 4e 04 be
       0.14884125 0.35212314 0.26372015 -0.12920503
000060 66 50 30 bd a5 6f a7 3d e3 4d c0 bd 97 d1 47 bf
       -0.043045424 0.081755914 -0.09389856 -0.78054184
000070 68 0a af bd 44 d4 d0 3b 96 61 9f 3e 10 fc 45 bf
       -0.08546907 0.0063729603 0.3112914 -0.7733774
000080 75 8a a7 3e 13 33 e6 3e 4d 2d 61 be 12 0f 45 3e
       0.32722822 0.44960842 -0.21989937 0.1924403
000090 38 a8 a7 3e 9c f9 5b 3e ef 3c 65 be a0 a2 92 3e
       0.32745528 0.21481937 -0.22386526 0.28639698
0000a0 43 06 13 be ab 82 c7 bd ba 1d 47 3e f0 65 42 3f
       -0.14357857 -0.0974172 0.19444934 0.75936794
0000b0 82 b7 90 3d 1c 96 49 3e 99 53 74 bf b7 68 ec 3c
       0.07066251 0.19686168 -0.9544006 0.028858526
0000c0 68 c6 46 3d 72 be 36 bd fa 57 09 3f 8c fe 96 be
       0.04852906 -0.044615217 0.53649867 -0.2949108
0000d0 92 a6 c8 3e 12 42 37 3f bc 4c c4 be 2c 1c 28 be
       0.39189583 0.7158519 -0.38339794 -0.16416997
0000e0 80 78 f6 3d f1 da b7 3d 2e 56 6a bd f8 5a 9b 3e
       0.12034702 0.08977307 -0.057211094 0.3034284
0000f0 0e e6 9d be 2f 59 44 bd 5e 3f 97 bc bf 17 ff 3c
       -0.3083958 -0.047936615 -0.018462833 0.031139253
000100 b0 a6 24 3e 76 94 a5 be a2 a0 3b 3e e6 4e b2 3d
       0.16079211 -0.3233983 0.18322995 0.08706455
000110 c2 0a 88 3d bb 19 e4 3e 73 af 1c 3e b0 b0 4a 3e
       0.06642677 0.4455088 0.15301304 0.19793963
000120 a4 87 97 3e cf 6c b5 3d 95 bf 50 3e c2 dc a2 3d
       0.29595673 0.08858644 0.20385583 0.079522625
000130 32 57 2f 3e 97 f9 d2 be 17 5e 9b 3c 5a a6 0c bf
       0.17123106 -0.41206047 0.018965764 -0.5494133
000140 0b d0 8a be c9 c2 2c 3d 34 67 df bd e2 4a 14 3e
       -0.2711185 0.04217795 -0.10908356 0.1448169
000150 3c 91 45 be 85 a9 b6 be cc 33 b5 bd 7d 0d 01 3f
       -0.19293684 -0.35676208 -0.0884777 0.50411206
000160 53 9a 98 be e1 6b 0b be 93 43 c2 3e 9c ea 16 be
       -0.2980524 -0.13615371 0.3794218 -0.14737934
000170 09 cd 7d bc 6b 42 2c be 42 84 c8 bd 45 cb 37 be
       -0.015490779 -0.16822211 -0.09790851 -0.17948635
000180 60 ae de 3d 99 c5 52 be c0 be 0c 3e 45 61 00 bd
       0.10873103 -0.2058319 0.1374464 -0.031342763
000190 97 db 68 be 06 70 a5 be 05 e4 05 3e a3 af bb be
       -0.22740017 -0.3231203 0.13075264 -0.36657438
0001a0 1b 73 94 bc 35 4e 52 bd cf 9e 07 bd c0 fb 3f 3e
       -0.018121293 -0.051344115 -0.033110436 0.18748379
0001b0 7b f6 cb 3d 8b 69 21 be 77 80 64 3e df 87 c2 3e
       0.09959122 -0.15762918 0.2231463 0.37994286
0001c0 31 78 09 bd fe 8a 1d 3e c3 06 e9 bd 17 08 5f 3e
       -0.03356189 0.15385053 -0.11378243 0.2178043
0001d0 05 21 f2 3d a2 19 9f be fe 70 05 be 8c c7 1d bf
       0.11822704 -0.31074244 -0.13031384 -0.6163261
0001e0 80 87 a2 bd 72 1c 9f 3e 3e 72 14 be aa 49 89 be
       -0.07936001 0.3107639 -0.14496705 -0.26814014
0001f0 62 06 fa 3e ea 0d c7 bd 5d 40 39 be db 4e 96 3d
       0.48832995 -0.09719451 -0.18090959 0.07339259
000200 41 cb a2 3d ec 08 24 3d 56 ec 1a 3f bc e0 79 3e
       0.07948924 0.04004757 0.6051687 0.24402136
000210 05 c9 3b be 0f 53 e8 3e f5 b1 13 be 5f 5a bd 3d
       -0.18338402 0.4537587 -0.14423354 0.092457525
000220 89 a9 f2 bc dd c0 44 3e de 42 73 3c 80 05 b1 3e
       -0.029621856 0.19214197 0.014847485 0.3457451
000230 60 12 87 3e 49 ea a2 be 6c f6 29 3e 03 d8 dc 3d
       0.26381207 -0.3181937 0.16597909 0.107833885
000240 3c 1f 2c be 01 be 3f be 1c 5d b5 be b1 44 78 be
       -0.1680879 -0.18724824 -0.354226 -0.24244954
000250 69 dc 2d bd b1 ce ea be 40 84 74 3d d9 31 76 3e
       -0.042446528 -0.45860818 0.059696436 0.24042453
000260 c0 f0 b8 3c 4f 95 92 3d b3 f9 3c be c1 da 0c be
       0.022575736 0.071573846 -0.18454628 -0.13755323
000270 c5 dc 4d be 89 e6 81 3b 98 61 95 3e e4 47 cb 3e
       -0.20103748 0.0039642495 0.2917602 0.39703286
000280 68 02 6a bf dd 2e 31 3d cb 2c 8f 3e f6 8b 38 bb
       -0.9140992 0.043257583 0.27963862 -0.0028159595
000290 3d 6e 8a 3e 15 cf f4 be 61 c0 ad bd ac a4 fa bd
       0.2703723 -0.4781424 -0.08483959 -0.1223844
0002a0 ec 61 04 bd 63 ae 01 3f b5 fa 8c 3c 7d cf 71 be
       -0.032319948 0.5065672 0.01720939 -0.23614307
0002b0 84 cd 01 3f fb 43 8d be e3 a0 02 bf 6f 44 3b 3f
       0.50704217 -0.27590927 -0.51026744 0.73151296
0002c0 f3 4d b3 be b8 72 d2 3d d5 63 69 3e 44 f2 41 3d
       -0.35020408 0.10275787 0.22791989 0.047350183
0002d0 11 85 2b be 30 64 cc bc 3a 86 1f be 68 08 57 be
       -0.1674998 -0.024950117 -0.15578547 -0.209993
0002e0 82 3a af 3d d6 33 3c be 20 f4 ae be 56 94 2b 3f
       0.08556081 -0.18379149 -0.34170628 0.6702322
0002f0 94 86 64 be 88 64 09 bf 1c cd 0e 3e c9 fe 08 be
       -0.22316962 -0.53669024 0.1394543 -0.13378443
000300 d6 0a bb 3e a5 f5 1b 3e cf 44 94 3e dc c4 70 3e
       0.36531705 0.15230425 0.28958747 0.23512596
000310 4e 2a 79 be 16 3e f1 3d 24 36 b2 3d 2c 87 3c 3d
       -0.24332544 0.1177942 0.08701733 0.046027347
000320 ed 80 f3 be 38 87 1c 3e f6 70 1c 3e 88 78 27 bf
       -0.475593 0.15285957 0.15277466 -0.6541829
000330 4b 79 15 3f e8 ad de 3e 3f c4 ae be cd 3f ba 3e
       0.58388203 0.43492055 -0.341341 0.363768
000340 59 06 80 3d 1c 28 4c 3e 52 20 62 3e 12 8d 28 3f
       0.06251211 0.19937176 0.22082642 0.65840256
000350 35 a0 85 3d 58 9c f8 be 09 c0 27 be 58 41 77 be
       0.06524698 -0.4855678 -0.1638185 -0.2414602
000360 90 10 05 bf 7e 59 06 be 60 1f ac 3e 0c 29 2f 3f
       -0.519784 -0.13120076 0.33617687 0.6842201
000370 a9 29 04 bf 5e 4e a8 bd 5f 5a 11 3e 6d 1c 8e bd
       -0.5162607 -0.08218072 0.1419463 -0.069390155
000380 5f ce b0 3e bd f8 68 3e af 61 41 3d 9f 67 7f 3d
       0.3453245 0.22751136 0.0472123 0.06235468
000390 74 37 fe bd 8a af 07 be 2a 7b 9c be 26 36 d3 3e
       -0.124129206 -0.13250557 -0.30562717 0.4125225
0003a0 49 27 30 be fe 2c a4 3c db 95 af be 55 c6 8a bd
       -0.17202486 0.020040985 -0.34294018 -0.0677611
0003b0 e9 1e 0c 3e 83 53 6a 3e 5d 07 9e bd 8c 65 43 be
       0.13683666 0.2288342 -0.07716248 -0.19081706
0003c0 55 48 06 3f c7 06 c8 be 91 16 a6 be f1 4d 05 3f
       0.5245412 -0.3906767 -0.32439092 0.52072054
0003d0 38 d6 c3 be 5f 0d 76 3d b3 c9 7c 3e 52 bf a5 be
       -0.38249373 0.060071345 0.24686317 -0.32372528
0003e0 7c e0 7f be 14 ea b8 bc 28 7d 40 3d 02 a5 0d be
       -0.24987978 -0.022572555 0.04699436 -0.13832477
0003f0 76 bc c0 be e1 0b 50 bd fc 4c 43 be 07 06 21 be
       -0.37643784 -0.05079258 -0.19072336 -0.15724955

model.layers.0.atom_moment.radial_mlp.1_0_1.layers.0.bias f4 [16]
000000 4f c5 c2 be 8b 55 22 be dd 46 25 3e a9 b2 e3 3d
       -0.3804116 -0.15852945 0.16140313 0.11118061
000010 a1 af 33 3e ba 3f 80 3d fd cd 0a 3e d4 35 9c 3e
       0.17547466 0.06262155 0.13555141 0.30509818
000020 11 99 69 3e d7 53 82 3c 27 68 e8 bd 44 eb 83 be
       0.22812296 0.015909119 -0.113479905 -0.2576543
000030 8c fb 40 be 43 e1 24 3e d6 c6 06 3e 58 4c 86 3e
       -0.18845958 0.16101556 0.13161787 0.2623012
