models/LiPS/training_size-10/checkpoint.ckpt (torch, 678496 bytes, 600 tensors)

model.atom_embedding.linear.weight f4 [17, 3]
-0.5927075 -0.590261 0.37209547 -0.31010833 -0.23084167 -0.5736931 -0.6590162 -0.39322034
-0.29544613 -0.14788297 0.09719073 -0.15844256 -0.024042394 0.44338322 0.46611118 -0.114028156
0.17280754 -0.18892567 0.469433 0.3222643 0.5659745 0.6832091 0.270383 0.5270235
0.060693048 0.1888815 -0.052064132 -0.1899331 0.41928974 0.14506114 -0.115463406 -0.43187374
0.23281628 0.15381269 -0.50162673 0.11507453 -0.39144456 0.53522235 0.52843565 0.40243202
0.39691827 0.328356 -0.7739479 0.099663846 0.5922226 0.25147924 0.5282254 0.5039651
-0.090225644 -0.26509178 0.49714002
00000000: aebb 17bf 581b 17bf 4c83 be3e 85c6 9ebe
00000010: c261 6cbe 8ddd 12bf 49b5 28bf 2d54 c9be
00000020: b744 97be a26e 17be ef0b c73d c43e 22be
00000030: 8ef4 c4bc 2003 e33e 20a6 ee3e 9887 e9bd
00000040: 76f4 303e bb75 41be 8659 f03e d4ff a43e
00000050: b4e3 103f cbe6 2e3f a46f 8a3e 03eb 063f
00000060: 4699 783d 276a 413e 3341 55bd d37d 42be
00000070: 25ad d63e e88a 143e 1478 ecbd 8e1e ddbe
00000080: 6467 6e3e 1381 1d3e 9c6a 00bf 32ac eb3d
00000090: 6c6b c8be 5504 093f 8f47 073f 920b ce3e
000000a0: df38 cb3e 471e a83e 7321 46bf 8f1c cc3d
000000b0: e69b 173f e3c1 803e c839 073f db03 013f
000000c0: 39c8 b8bd 1cba 87be 2389 fe3e

model.atom_embedding.linear.bias f4 [17]
0.17622107 -0.0040381765 -0.42902395 0.59101886 -0.3362163 0.07819846 -0.007360586 0.14886707
-0.06625316 -0.37206712 0.2742318 -0.47078493 0.6110082 0.21015388 -0.121230274 0.13019934
-0.3681934
00000000: 4c73 343e ae52 84bb 07a9 dbbe 034d 173f
00000010: 8b24 acbe 8426 a03d 1231 f1bb 9c70 183e
00000020: bdaf 87bd 957f bebe 1c68 8c3e b90a f1be
00000030: 096b 1c3f 9432 573e 9447 f8bd fa52 053e
00000040: d883 bcbe

model.layers.0.mlp_mix_atom_feats.0.weight f4 [17, 17]
-0.16408555 -0.115444586 -0.13583568 0.120913744 0.36701494 0.22905509 -0.078974105 -0.26884475
0.061238255 0.340817 0.016168287 0.06633675 0.0688477 0.025660668 0.6763459 0.0758992
0.19973588 -0.15255517 -0.012261882 -0.3664368 0.3177869 -0.069260255 0.19732922 0.12364381
0.28821942 0.13251151 0.0456133 -0.18257388 -0.031401005 0.34984666 0.104093164 -0.24621142
0.10770027 -0.14219736 0.17923175 0.044821534 -0.04343586 -0.030583266 0.18265979 0.19610332
-0.15790588 0.19873698 0.051608637 -0.2143466 0.2278842 0.10632171 0.095811404 0.06028337
0.1493008 -0.009205214 -0.087101705 -0.22240531 -0.03139657 0.097873576 -0.26293048 0.08432361
0.09159435 -0.19939145 -0.11094482 0.11853351 -0.1585879 -0.13677685 0.34067997 0.06803566
-0.06779173 -0.16735248 -0.10680237 -0.049645584 -0.0043809605 0.21801189 0.121672496 -0.0399755
-0.0018360717 -0.23380613 0.049704727 -0.09970911 0.022071052 0.17802745 -0.26543406 0.03486568
-0.3317962 -0.3118328 0.14243948 -0.18760945 0.32695672 -0.4629332 0.07841842 -0.14697081
-0.12316842 -0.18577787 -0.03346456 0.10642537 -0.041222636 0.20766953 0.04845652 0.015242697
0.12693742 0.09434237 -0.040162884 -0.36199537 -0.1918754 -0.041151863 0.037003864 0.20482549
0.09388877 -0.13779932 -0.08575321 0.2559389 -0.14448178 -0.38182405 0.07358836 0.030496702
-0.26451552 0.39112675 -0.37604406 -0.26760632 -0.23343064 -0.35548487 -0.055223856 -0.48221654
0.2664031 -0.04812702 -0.025704607 -0.048876226 0.17884557 -0.21892054 -0.058616117 0.027964216
0.15675849 -0.35228926 0.04395027 -0.04844545 0.09521487 -0.3660719 0.07211508 -0.22408174
0.08068287 0.0035215924 -0.17558424 -0.16971514 -0.054011963 0.1634305 0.16670318 0.004094506
0.032661844 -0.22004266 0.07136092 -0.292048 -0.112362355 0.033361346 -0.004664133 0.16210404
-0.07562098 -0.2596207 0.088778 0.24633907 -0.06388632 -0.19314569 -0.1422335 0.07566786
-0.23469901 0.27268663 0.13781138 -0.11883129 -0.13292381 0.047740236 0.18019964 -0.42804283
0.1908978 0.10490113 0.38689926 0.05597215 -0.13977526 0.13253254 -0.21609345 -0.16321394
-0.018042767 0.09524725 -0.19532469 0.16158594 0.28149158 0.004367629 0.2818886 -0.07745847
0.20399058 -0.18205106 -0.044507414 -0.19386436 0.2325748 0.15776813 -0.11620558 -0.029889666
-0.14644505 -0.15160193 0.15496325 -0.09014476 -0.035149828 0.16676372 0.022902371 -0.12846759
-0.21010557 -0.34700054 -0.083182976 0.122216724 0.12540568 0.057008673 0.14657408 0.05032795
0.34211382 0.12157105 -0.30183086 -0.36835676 -0.06286578 0.41129863 -0.10584569 0.11831862
0.24033035 0.090361305 0.085806176 0.20202656 -0.12321701 -0.08266232 -0.08149339 0.04076705
0.108206086 -0.14118993 -0.22425364 -0.28737026 0.09700864 -0.27504352 0.044804104 0.027435493
0.31199375 -0.19434696 0.14198619 0.34293765 -0.31873953 -0.044229273 0.01240166 -0.020251453
0.18623318 -0.2569041 -0.010853744 0.110738225 0.03764806 0.09161031 0.19707589 0.17331176
-0.29728833 0.019799128 -0.030150224 -0.211632 0.017063685 -0.123690315 -0.09117098 -0.15681426
00000000: 0b06 28be 366e ecbd 8218 0bbe a0a1 f73d
00000010: 62e9 bb3e 6b8d 6a3e 2dbd a1bd 05a6 89be
00000020: f7d4 7a3d 917f ae3e 5b73 843c 90db 873d
00000030: 0600 8d3d 5236 d23c 0125 2d3f 0a71 9b3d
00000040: 9087 4c3e 6c37 1cbe 10e6 48bc 9b9d bbbe
00000050: f7b4 a23e 52d8 8dbd ac10 4a3e f738 fd3d
00000060: 7f91 933e 19b1 073e 03d5 3a3d a6f4 3abe
00000070: 579e 00bd 1a1f b33e cc2e d53d d91e 7cbe
00000080: f691 dc3d 2f9c 11be 8788 373e c996 373d
00000090: cde9 31bd c289 fabc 2b0b 3b3e 4fcf 483e
000000a0: 14b2 21be b581 4b3e 9463 533d ad7d 5bbe
000000b0: 7a5a 693e 32bf d93d c538 c43d b2eb 763d
000000c0: 4fe2 183e 77d1 16bc 6162 b2bd 38be 63be
000000d0: b199 00bd f171 c83d d39e 86be dbb1 ac3d
000000e0: d295 bb3d 462d 4cbe 0a37 e3bd b2c1 f23d
000000f0: de64 22be 3b0f 0cbe 9b6d ae3e 4856 8b3d
00000100: 64d6 8abd 735e 2bbe 33bb dabd 2b59 4bbd
00000110: 298e 8fbb 823e 5f3e 6e2f f93d 5abd 23bd
00000120: 58a8 f0ba e06a 6fbe 2f97 4b3d 4a34 ccbd
00000130: 5ace b43c d44c 363e f9e6 87be 51cf 0e3d
00000140: 31e1 a9be 8ca8 9fbe a8db 113e b11c 40be
00000150: df66 a73e 9505 edbe d699 a03d 847f 16be
00000160: b93f fcbd 8e3c 3ebe 2212 09bd 8bf5 d93d
00000170: 11d9 28bd 52a7 543e 587a 463d 81bc 793c
00000180: e2fb 013e 9336 c13d d681 24bd 7557 b9be
00000190: fc7a 44be db8e 28bd 5d91 173d c6bd 513e
000001a0: c148 c03d 441b 0dbe 619f afbd 6c0a 833e
000001b0: 08f3 13be 717e c3be 7eb5 963d 38d4 f93c
000001c0: 946e 87be c441 c83e d988 c0be b203 89be
000001d0: 7108 6fbe 1d02 b6be 6932 62bd 16e5 f6be
000001e0: fd65 883e d720 45bd 7892 d2bc 7032 48bd
000001f0: 4b23 373e b52c 60be 7417 70bd 3615 e53c
00000200: 4c85 203e 425f b4be 3305 343d bc6e 46bd
00000210: 0400 c33d c76d bbbe 12b1 933d af75 65be
00000220: 0f3d a53d 84ca 663b 5bcc 33be cec9 2dbe
00000230: a63b 5dbd 535a 273e 3db4 2a3e 352b 863b
00000240: 6dc8 053d dd52 61be ad25 923d 5187 95be
00000250: 3c1e e6bd e8a5 083d 95d5 98bb 9afe 253e
00000260: 2cdf 9abd 01ed 84be 3dd1 b53d 4f40 7c3e
00000270: d5d6 82bd fcc7 45be a9a5 11be c0f7 9a3d
00000280: f054 70be 959d 8b3e 6d1e 0d3e d25d f3bd
00000290: 2e1d 08be 448b 433d 4186 383e 6e28 dbbe
000002a0: b67a 433e 67d6 d63d a917 c63e 0e43 653d
000002b0: 3f21 0fbe 9cb6 073e 9a47 5dbe 8e21 27be
000002c0: 6dce 93bc fd10 c33d 3203 48be c976 253e
000002d0: aa1f 903e 541e 8f3b b453 903e 8ca2 9ebd
000002e0: e8e2 503e 986b 3abe 684d 36bd 6184 46be
000002f0: 1728 6e3e f88d 213e 31fd edbd 2cdb f4bc
00000300: b1f5 15be 893d 1bbe b0ae 1e3e d19d b8bd
00000310: 44f9 0fbd 1cc4 2a3e c19d bb3c 028d 03be
00000320: ea25 57be 0eaa b1be d65b aabd c34c fa3d
00000330: 596a 003e ed81 693d 8417 163e ae24 4e3d
00000340: 8b29 af3e 3efa f83d 9389 9abe 4299 bcbe
00000350: c6bf 80bd bc95 d23e a0c5 d8bd 0851 f23d
00000360: 2919 763e 590f b93d 26bb af3d 0de0 4e3e
00000370: 3359 fcbd dd4a a9bd 02e6 a6bd 5afb 263d
00000380: 279b dd3d 1894 10be bfa2 65be 3222 93be
00000390: 77ac c63d 81d2 8cbe 8284 373d 66c0 e03c
000003a0: a5bd 9f3e e402 47be d464 113e 8695 af3e
000003b0: d431 a3be c129 35bd 5530 4b3c 60e6 a5bc
000003c0: e9b3 3e3e ef88 83be e7d3 31bc b9ca e23d
000003d0: da34 1a3d 309e bb3d 43ce 493e a378 313e
000003e0: 2d36 98be c831 a23c 9afd f6bc 0fb6 58be
000003f0: 24c9 8b3c 5951 fdbd dab7 babd eb93 20be

model.layers.0.atom_moment.radial.c f4 [3, 3, 17, 9]
-0.23064367 -0.3458632 0.18277328 0.38387665 0.18435109 -0.20960364 -0.36854562 -0.28739664
-0.15560777 -0.0029541273 -0.15251032 0.03273437 -0.06868113 0.0768239 -0.023685068 -0.04317306
-0.08696321 -0.20576677 0.2505421 0.3839054 0.0879431 -0.37936956 -0.44852084 -0.09532407
0.48646444 0.11336356 0.22368065 -0.077642746 -0.5680904 0.2616452 0.5919974 0.49182683
0.4535289 -0.3954366 -0.18430546 -0.044081442 -0.13306777 -0.08019235 0.04467632 0.4927284
0.1299147 -0.22306962 -0.1658008 -0.055652365 -0.10854311 0.07202807 -0.13505554 -0.25033137
0.077013984 -0.114757724 0.10223499 0.07578589 0.1764426 0.41874188 -0.076202855 0.29828018
-0.30258355 -0.072853625 0.32693154 0.27358395 -0.09582626 -0.46862018 0.36076793 -0.13874605
-0.2124025 0.05709774 -0.3234719 -0.1334443 -0.06741513 0.034824494 -0.292213 -0.14926413
-0.29132754 0.27798074 0.27997825 0.12493217 -0.4011335 -0.7063468 -0.2583892 0.06541475
0.2541998 -0.1258682 -0.27170855 -0.47523898 -0.21537946 0.1187377 0.00292385 0.2965942
0.21530533 0.2283278 0.009855372 0.27732918 -0.31913757 -0.0037393305 0.11696841 0.13831481
-0.099778734 0.04513685 -0.13945962 0.56688935 0.29706645 -0.46376327 -0.15410016 -0.08058466
-0.046883415 0.24871194 -0.33260894 0.1409685 -0.10782465 -0.4139559 0.41979614 0.18852243
-0.28332728 0.05697925 0.011812933 0.047361277 0.20760258 -0.12413472 -0.41821247 0.37425783
0.030982556 0.02958309 -0.41024062 -0.038119446 0.24955623 0.10735346 0.3302499 -0.3369753
-0.32802883 -0.22092457 0.39570847 0.15683477 -0.09999706 -0.7240732 -0.3211415 0.12668914
0.16602543 0.46946058 0.17844583 -0.28308776 -0.25306112 0.40589312 0.23068796 -0.17702666
-0.37940952 -0.23093832 0.2636756 -0.15779033 -0.26567224 0.03264455 0.13462251 0.32642156
0.21221517 0.28351802 -0.43429065 0.060405355 0.19704986 -0.023881411 0.29253072 -0.2996058
0.12162623 -0.324959 0.20880413 0.22583959 0.21493402 0.15658525 -0.10791994 -0.29443043
-0.022641068 -0.049728133 0.12022729 -0.09767904 -0.15204749 0.2945799 -0.14600216 -0.5159489
0.020654667 0.2998977 0.2676863 -0.018408144 -0.11963841 -0.52036947 0.1402787 0.49517485
0.1940201 -0.14082482 -0.26873493 0.020566551 -0.24615303 -0.38385814 0.0024796636 0.33993027
0.2708663 -0.022271665 -0.40824527 -0.2944731 0.31367353 -0.07410073 0.34815118 -0.15813714
-0.050359823 -0.1803164 0.22157557 0.46285462 -0.41204202 -0.10982998 -0.45465443 -0.037821293
-0.29236218 -0.24387534 -0.059080236 0.27362353 0.37453824 -0.08639725 -0.6218684 -0.31512916
-0.083631046 -0.13146982 -0.48572287 -0.44064268 0.010335687 0.0652235 0.22196169 -0.09790528
-0.25445238 -0.19010028 0.1875748 0.21147597 0.01744046 -0.62917024 -0.14421554 0.34026805
0.12755206 6.423633e-05 0.17505752 -0.0040894398 -0.31040978 0.0733239 -0.22491853 0.35838363
-0.4202441 0.3257513 0.18386163 0.15047677 -0.25689355 -0.23519057 -0.013020517 -0.21817435
0.086486846 -0.47317988 0.048711814 0.26364675 0.02571953 -0.13666852 -0.42221028 0.0005157337
00000000: db2d 6cbe fb14 b1be eb28 3b3e 7b8b c43e
00000010: 88c6 3c3e 56a2 56be 03b2 bcbe a725 93be
00000020: a557 1fbe 089a 41bb aa2b 1cbe 7a14 063d
00000030: b1a8 8cbd d955 9d3d 3007 c2bc 3cd6 30bd
00000040: c419 b2bd 86b4 52be 0e47 803e 408f c43e
00000050: 831b b43d ba3c c2be 86a4 e5be 4439 c3bd
00000060: de11 f93e 272b e83d 8a0c 653e 2903 9fbd
00000070: 5f6e 11bf 5cf6 853e 248d 173f bad0 fb3e
00000080: f134 e83e ab76 cabe 92ba 3cbe be8e 34bd
00000090: eb42 08be e33b a4bd 84fe 363d e646 fc3e
000000a0: 5c08 053e 5d6c 64be afc7 29be bcf3 63bd
000000b0: da4b debd 7483 933d 004c 0abe 6f2b 80be
000000c0: 82b9 9d3d 1906 ebbd 9460 d13d a235 9b3d
000000d0: 5ead 343e 5665 d63e 3e10 9cbd 2eb8 983e
000000e0: 3bec 9abe 4834 95bd 9263 a73e 3213 8c3e
000000f0: 8f40 c4bd fcee efbe 93b6 b83e 7213 0ebe
00000100: 0a80 59be 52df 693d 1c9e a5be 9fa5 08be
00000110: f210 8abd 21a4 0e3d f19c 95be b2d8 18be
00000120: e228 95be 7e53 8e3e 4f59 8f3e 70dc ff3d
00000130: 5f61 cdbe 25d3 34bf 974b 84be 2bf8 853d
00000140: 7a26 823e 98e3 00be 621d 8bbe 8652 f3be
00000150: 6f8c 5cbe c02c f33d 109e 3f3b 32db 973e
00000160: 0079 5c3e c3ce 693e 6d78 213c 17fe 8d3e
00000170: 0066 a3be 8e0f 75bb 228d ef3d 66a2 0d3e
00000180: cb58 ccbd 6be1 383d 81ce 0ebe a91f 113f
00000190: 1819 983e 6172 edbe 6fcc 1dbe 9209 a5bd
000001a0: d308 40bd 58ae 7e3e b84b aabe 0c5a 103e
000001b0: 2cd3 dcbd 07f2 d3be 85ef d63e 060c 413e
000001c0: 4610 91be 1363 693d 088b 413c e6fd 413d
000001d0: c595 543e 583a febd f21f d6be b99e bf3e
000001e0: 21cf fd3c 3d58 f23c 0f0b d2be 2323 1cbd
000001f0: ab8b 7f3e 21dc db3d 8416 a93e 0788 acbe
00000200: 65f3 a7be 0d3a 62be 4d9a ca3e 4b99 203e
00000210: 42cb ccbd dc5c 39bf a96c a4be ccba 013e
00000220: 9202 2a3e 235d f03e 81ba 363e e1f0 90be
00000230: 3a91 81be 39d1 cf3e 7739 6c3e 7a46 35be
00000240: f741 c2be 187b 6cbe 7d00 873e ca93 21be
00000250: 3106 88be 4bb6 053d 7cda 093e ba20 a73e
00000260: ef4e 593e 4629 913e 585b debe 9b6b 773d
00000270: 70c7 493e f3a2 c3bc 96c6 953e ee65 99be
00000280: 2c17 f93d 0761 a6be c0d0 553e 7e42 673e
00000290: aa17 5c3e e257 203e 2105 ddbd 96bf 96be
000002a0: c379 b9bc baaf 4bbd ba39 f63d f30b c8bd
000002b0: 56b2 1bbe 2dd3 963e 9781 15be 3a15 04bf
000002c0: fa33 a93c 318c 993e 2e0e 893e adcc 96bc
000002d0: fc04 f5bd ef36 05bf 38a5 0f3e 8f87 fd3e
000002e0: 35ad 463e 6234 10be a097 89be 2f7b a83c
000002f0: 8a0f 7cbe 0e89 c4be da81 223b 570b ae3e
00000300: fdae 8a3e 1173 b6bc 8605 d1be 2ec5 96be
00000310: d199 a03e 20c2 97bd df40 b23e b4ee 21be
00000320: 1a46 4ebd dda4 38be b5e4 623e 48fb ec3e
00000330: 2cf7 d2be 8aee e0bd 77c8 e8be 80ea 1abd
00000340: 7fb0 95be 75ba 79be 1efe 71bd 6218 8c3e
00000350: 7ac3 bf3e 0bf1 b0bd c432 1fbf 9c58 a1be
00000360: c146 abbd 06a0 06be abb0 f8be eb9b e1be
00000370: 0357 293c e693 853d ed49 633e 9082 c8bd
00000380: 9547 82be a6a9 42be 9c13 403e 288d 583e
00000390: 4cdf 8e3c 4d11 21bf 3dad 13be 9d37 ae3e
000003a0: 029d 023e 9eb6 8638 4742 333e b500 86bb
000003b0: 08ee 9ebe d72a 963d 0b51 66be 0f7e b73e
000003c0: 3c2a d7be e0c8 a63e 3946 3c3e 9516 1a3e
000003d0: 8d87 83be ccd5 70be 0254 55bc 1969 5fbe
000003e0: 0420 b13d a244 f2be 0a86 473d b5fc 863e
000003f0: c4b1 d23c d5f2 0bbe f22b d8be 4d32 073a

model.layers.0.atom_moment.radial_mlp.0_0_0.layers.0.weight f4 [16, 17]
0.3213564 -0.2197261 -0.23744565 -0.081009395 -0.25421193 0.48114735 0.46049812 0.18299115
-0.30033404 0.12920138 -0.019547138 -0.26268083 -0.28598568 -0.267078 0.4100913 -0.39800942
-0.38785648 -0.1078634 0.14988151 0.40076387 0.49566698 0.33246619 -0.022691535 -0.14052711
0.3110448 0.14923699 -0.23746008 -0.4683139 -0.4980003 -0.15374117 0.2326214 0.11769972
0.1666887 -0.05758638 -0.002134134 0.4485807 0.24916159 0.13283724 0.17908007 -0.38511616
-0.2036021 0.3202339 0.013008617 -0.32178798 -0.37811297 -0.27599967 0.2710851 0.3155319
0.06527811 0.34046265 -0.08514113 -0.03864034 -0.054980814 0.13273051 -0.17315215 -0.54853815
0.28616485 0.34693596 0.47828236 -0.28177413 0.02220393 0.2531501 0.23535283 -0.2863898
-0.3273284 0.2158213 -0.12273502 -0.2850583 0.031604238 -0.21917048 -0.31119758 0.08728168
-0.4069858 0.06488102 0.108102426 0.2635122 -0.090194665 -0.21676113 -0.123710826 0.07516742
0.27191335 -0.29366648 0.4278315 -0.27549177 -0.30431113 0.15453234 -0.052094307 -0.18805623
0.05373046 -0.24610704 0.11569332 0.2906364 0.31370664 -0.2293704 0.0063937763 -0.049105123
0.2577043 -0.1529823 -0.18863888 0.3458405 -0.15103374 0.060602132 -0.1685048 0.59905845
0.34239176 0.32221895 0.27589658 -0.25169292 -0.022422869 0.33427837 -0.1138339 -0.55804384
-0.57087225 -0.40947327 0.1278671 0.11766454 -0.07325161 0.27367377 -0.036653664 -0.17076457
0.33601108 0.3362897 0.4781202 0.3202276 -0.2183014 -0.015688587 0.41379324 -0.0047524567
-0.3418091 -0.35932824 -0.3583258 0.24030472 0.21719155 0.028621541 0.3706698 -0.12548761
0.3073734 0.08429265 -0.06296925 0.11369742 -0.32639432 0.31238803 0.2614157 0.20920977
-0.33841252 -0.27897334 0.21567027 0.15769596 -0.27531862 -0.1840783 0.32680932 -0.45297116
-0.4206857 0.32288802 0.10355408 -0.21476603 0.073574275 -0.30790716 0.4356891 0.38064173
0.22602125 -0.023796214 -0.28470924 0.19333126 0.035061643 -0.3003465 -0.052160233 0.08919224
-0.2995925 -0.25897583 -0.11159034 0.08383524 -0.11320735 0.06600079 -0.41358462 -0.101027876
0.3203471 0.21810627 -0.12317263 -0.18690021 0.237577 -0.048117094 -0.14677946 -0.34511033
0.21405317 -0.13511258 -0.5032801 -0.07580892 0.45649287 0.18195705 0.24332853 0.32427806
-0.0016635993 -0.18278223 0.1887063 -0.14488675 -0.31100953 -0.37944227 -0.5454573 0.0144620165
-0.1449416 -0.096598774 0.26927066 -0.20798093 0.5510117 -0.70879936 -0.45852178 -0.46379012
-0.05618925 0.5314229 0.006893944 -0.6412594 0.118057534 0.43988314 0.17053081 0.5160254
-0.42280406 0.030401953 0.05630213 -0.25397328 0.43000245 -0.2986096 0.36976427 0.12972404
0.53225034 0.33839816 -0.2849894 -0.046453077 0.08048553 0.21533051 -0.3028441 -0.5099481
-0.34258145 0.049091935 -0.022651669 0.29485902 0.35726553 -0.31583205 0.38822526 0.111614265
-0.22754982 -0.054599397 -0.079956956 0.22935064 0.34311274 0.22020611 -0.060745075 0.15679446
0.018904626 -0.06968996 -0.3145987 -0.2026478 0.25362518 -0.26441693 -0.20875897 0.13057163
00000000: d388 a43e e1ff 60be f424 73be 41e8 a5bd
00000010: 1128 82be f258 f63e 69c6 eb3e 0862 3b3e
00000020: 62c5 99be 5e4d 043e 5221 a0bc 1a7e 86be
00000030: b76c 92be 73be 88be 7df7 d13e e4c7 cbbe
00000040: 2095 c6be 7ce7 dcbd 8a7a 193e ec30 cd3e
00000050: 10c8 fd3e 0239 aa3e 99e3 b9bc 57e6 0fbe
00000060: 4441 9f3e 95d1 183e bc28 73be d7c6 efbe
00000070: e5f9 febe 536e 1dbe 4e34 6e3e 8d0c f13d
00000080: 71b0 2a3e b2df 6bbd d4dc 0bbb 5fac e53e
00000090: 3724 7f3e 7c06 083e c460 373e f22d c5be
000000a0: 127d 50be b3f5 a33e 1822 553c 65c1 a4be
000000b0: 0698 c1be d44f 8dbe abcb 8a3e 668d a13e
000000c0: 88b0 853d 1f51 ae3e 795e aebd 5545 1ebd
000000d0: 9033 61bd 82ea 073e cc4e 31be ff6c 0cbf
000000e0: 3384 923e 97a1 b13e 6de1 f43e b344 90be
000000f0: 04e5 b53c e49c 813e 5500 713e afa1 92be
00000100: 9797 a7be 4200 5d3e 805c fbbd 29f3 91be
00000110: 7273 013d 3a6e 60be 4a55 9fbe bdc0 b23d
00000120: 7160 d0be 57e0 843d ce64 dd3d 12eb 863e
00000130: fbb7 b8bd a1f6 5dbe 1a5c fdbd 60f1 993d
00000140: 3a38 8b3e 745b 96be bb0c db3e 420d 8dbe
00000150: abce 9bbe ba3d 1e3e d760 55bd d091 40be
00000160: 7914 5c3d 7c03 7cbe 9ff0 ec3d 4bce 943e
00000170: 289e a03e 13e0 6abe e282 d13b 7422 49bd
00000180: d1f1 833e 64a7 1cbe 8d2a 41be 0212 b13e
00000190: 97a8 1abe f139 783d 868c 2cbe e55b 193f
000001a0: f94d af3e e2f9 a43e 5142 8d3e e5dd 80be
000001b0: 2ab0 b7bc 8926 ab3e bf21 e9bd f6db 0ebf
000001c0: af24 12bf 7ba6 d1be 98ef 023e 1bfa f03d
000001d0: f104 96bd f81e 8c3e 2722 16bd e8dc 2ebe
000001e0: a509 ac3e 2a2e ac3e 2ccc f43e dff4 a33e
000001f0: 678a 5fbe 5a85 80bc b5dc d33e 7fba 9bbb
00000200: 9a01 afbe dff9 b7be 7b76 b7be 7112 763e
00000210: 7667 5e3e b977 ea3c 6fc8 bd3e d37f 00be
00000220: 0c60 9d3e a0a1 ac3d 06f6 80bd 31da e83d
00000230: 281d a7be 53f1 9f3e 47d8 853e 163b 563e
00000240: 6844 adbe 98d5 8ebe abd8 5c3e 0d7b 213e
00000250: 90f6 8cbe 067f 3cbe 8d53 a73e d6eb e7be
00000260: 1e64 d7be 9451 a53e 2914 d43d a0eb 5bbe
00000270: 1cae 963d 02a6 9dbe a412 df3e 79e3 c23e
00000280: 1d72 673e 47f0 c2bc 69c5 91be a1f8 453e
00000290: cc9c 0f3d 04c7 99be f8a5 55bd 6caa b63d
000002a0: 3064 99be 7b98 84be 7a89 e4bd cfb1 ab3d
000002b0: 41d9 e7bd 6c2b 873d 5dc1 d3be b4e7 cebd
000002c0: 8904 a43e 4057 5f3e ef41 fcbd c562 3fbe
000002d0: 6347 733e 6e16 45bd 5b4d 16be 4db2 b0be
000002e0: c130 5b3e f45a 0abe f7d6 00bf b541 9bbd
000002f0: 6fb9 e93e f352 3a3e 1d2b 793e c607 a63e
00000300: 210d daba 442b 3bbe 393c 413e 315d 14be
00000310: a43c 9fbe 4246 c2be 17a3 0bbf 18f2 6c3c
00000320: 926b 14be 94d5 c5bd d8dd 893e f4f8 54be
00000330: 1a0f 0d3f e073 35bf 5ec3 eabe e675 edbe
00000340: b326 66bd 550b 083f 98e6 e13b 9329 24bf
00000350: 26c8 f13d 5d38 e13e a19f 2e3e 3e1a 043f
00000360: c679 d8be 840d f93c 109d 663d c908 82be
00000370: 4829 dc3e 5ce3 98be be51 bd3e 61d6 043e
00000380: 8f41 083f 8642 ad3e 21ea 91be 9545 3ebd
00000390: 99d5 a43d 9a7f 5c3e 620e 9bbe f58b 02bf
000003a0: d666 afbe a014 493d fe8f b9bc c3f7 963e
000003b0: 82eb b63e bdb4 a1be 76c5 c63e 0596 e43d
000003c0: d202 69be 9ea3 5fbd 79c0 a3bd e5da 6a3e
000003d0: 79ac af3e b67d 613e d4cf 78bd ba8e 203e
000003e0: e0dd 9a3c 9cb9 8ebd 1513 a1be e882 4fbe
000003f0: 29db 813e a861 87be e9c4 55be 92b4 053e

model.layers.0.atom_moment.radial_mlp.0_0_0.layers.0.bias f4 [16]
-0.23580094 0.0016756603 0.024550958 0.15974665 -0.035656683 0.095582366 0.066959426 -0.021098796
-0.110978544 -0.077067375 -0.17697981 -0.077087454 0.048700392 -0.18186666 0.089131914 -0.13454537
00000000: cd75 71be d4a1 db3a 171f c93c a094 233e
00000010: be0c 12bd b0c0 c33d 0622 893d 62d7 acbc
00000020: b848 e3bd 80d5 9dbd 323a 35be 07e0 9dbd
00000030: 107a 473d 413b 3abe cb8a b63d 43c6 09be

model.layers.0.atom_moment.radial_mlp.0_0_0.layers.2.weight f4 [16, 16]
0.06455216 -0.13168694 0.01310654 0.2851545 0.322661 -0.052952472 -0.1980162 -0.3402449
0.16320446 0.12013963 0.11374726 -0.2580745 -0.9168866 -0.32668224 -0.05935968 0.10125668
0.32884136 -0.22255023 -0.05799461 0.29774657 -0.04177771 -0.025084842 -0.32800674 -0.2524014
0.20802134 0.25114837 -0.0731332 -0.19465183 0.05241252 -0.2851928 0.24882725 0.2992613
0.33480656 -0.20360883 -0.37756062 0.3946968 0.117640674 0.06792623 -0.218501 -0.5550547
0.18242276 0.06319173 0.20308931 -0.16179168 -0.2910943 -0.29208574 0.22910768 0.26585022
0.006654874 0.06807162 0.14912455 0.30692562 0.41515234 0.0284654 0.38657036 0.31612936
0.3119605 0.19591805 0.17855346 -0.1057517 0.07576189 -0.0051455526 0.2635082 -0.012552428
0.048361573 0.028969066 0.0044900225 0.0769892 -0.15799497 -0.06346434 -0.13923526 -0.31334013
0.036084324 -0.13861932 -0.176406 0.26353997 -0.12327346 0.21305187 0.013764862 0.12530224
-0.3016693 0.18328449 0.16137126 -0.050853763 -0.3501104 0.017779695 0.15555002 -0.12906916
-0.1079981 -0.30501506 -0.21641654 0.06853298 0.65027803 -0.006507574 0.016788714 -0.16477267
-0.3751865 0.29065385 0.034434494 -0.08735925 -0.13248974 0.051455252 0.27644703 0.25246784
-0.06894069 -0.24018766 -0.08895107 0.2892785 0.26582757 -0.0580608 -0.03662048 -0.17858103
-0.30788115 0.15840475 -0.13749929 0.028163467 -0.08914022 0.22231396 -0.095425405 0.2015955
-0.013851301 -0.2599908 0.23259093 0.1817425 0.21598805 0.2917513 -0.18849853 -0.40822855
0.5083465 0.0048358715 -0.059240103 -0.11595833 -0.07243064 0.007246413 0.20782731 0.44742694
0.29650703 0.48122457 0.35953674 0.32391655 0.2032911 0.12247692 0.029607445 0.09492599
0.19137162 -0.35087025 -0.2602098 0.3288965 0.25635278 0.32218647 -0.43424928 -0.23644045
0.2596858 0.43462738 0.2115115 -0.6036998 0.22208133 -0.46211398 0.18676597 0.3654824
-0.17247194 -0.30853775 -0.100368075 0.10394 -0.02324435 -0.117392465 -0.16484126 -0.34814876
0.34792364 0.32788432 0.18060611 0.043738794 -0.82615817 -0.3056755 0.19483078 0.24526048
0.08161663 -0.3290862 -0.12959945 0.13595599 0.023013921 0.11027525 0.16772224 -0.44457483
0.029685495 -0.034923006 0.031733938 -0.02889984 0.029858993 -0.3849734 0.23724563 0.1496289
0.036441613 0.057853695 0.24367604 -0.13336597 0.03621004 0.15746072 0.043473367 -0.12374272
0.43394488 0.36748 0.36993864 0.3241376 -0.011077914 0.11177404 -0.037903413 0.38946444
0.1121645 0.27607027 0.2931591 0.33476287 0.16362537 0.025795422 0.122161075 0.37820417
0.31712753 0.38401887 0.46422368 0.36333075 0.12493543 0.18076631 0.3081091 0.49855405
-0.05368333 -0.060115684 -0.14496183 -0.22148038 -0.23671412 -0.07643469 -0.23099878 -0.21169889
0.13493852 0.22737682 0.2910874 0.048883718 0.2346046 -0.153135 -0.1223995 0.3142205
0.26153383 -0.36845866 -0.25921583 0.1207763 0.064786084 0.30787823 -0.41687584 -0.29882216
0.32061413 0.3535343 0.22880146 -0.25714043 -0.708583 -0.18769118 -0.015307064 0.24647924
00000000: ec33 843d f1d8 06be d0bc 563c c5ff 913e
00000010: d333 a53e b1e4 58bd c2c4 4abe 9434 aebe
00000020: 121f 273e c40b f63d 53f4 e83d 5722 84be
00000030: 15b9 6abf e542 a7be 2323 73bd aa5f cf3d
00000040: e55d a83e 35e4 63be c28b 6dbd 3d72 983e
00000050: 1b1f 2bbd ba7e cdbc 80f0 a7be c23a 81be
00000060: 8c03 553e 8596 803e dcc6 95bd cf52 47be
00000070: 83ae 563d ca04 92be 92cc 7e3e c738 993e
00000080: c46b ab3e d57e 50be a04f c1be b315 ca3e
00000090: 98ed f03d e81c 8b3d babe 5fbe 1118 0ebf
000000a0: 08cd 3a3e aa6a 813d a5f6 4f3e b8ac 25be
000000b0: 500a 95be 438c 95be 349b 6a3e 851d 883e
000000c0: 2111 da3b 2269 8b3d 1bb4 183e 5b25 9d3e
000000d0: d98e d43e 4530 e93c 8dec c53e b5db a13e
000000e0: 49b9 9f3e be9e 483e b8d6 363e 5994 d8bd
000000f0: 0d29 9b3d 069c a8bb 8cea 863e b3a8 4dbc
00000100: c916 463d 8950 ed3c 0a21 933b 84ac 9d3d
00000110: 6fc9 21be 98f9 81bd b093 0ebe 1e6e a0be
00000120: 28cd 133d 39f2 0dbe c6a3 34be b6ee 863e
00000130: cc76 fcbd 452a 5a3e 0486 613c 3b4f 003e
00000140: 6674 9abe eeae 3b3e 823e 253e 094c 50bd
00000150: ac41 b3be b9a6 913c 8148 1f3e b52a 04be
00000160: 1c2e ddbd ef2a 9cbe 4c9c 5dbe 055b 8c3d
00000170: 9f78 263f 7d3d d5bb 7c88 893c 2bba 28be
00000180: 7218 c0be 95d0 943e 2f0b 0d3d 68e9 b2bd
00000190: 64ab 07be bec2 523d 778a 8d3e 7743 813e
000001a0: c730 8dbd c1f3 75be fb2b b6bd 501c 943e
000001b0: 8d1a 883e 29d1 6dbd 5bff 15bd f2dd 36be
000001c0: 99a2 9dbe db34 223e 9dcc 0cbe 12b7 e63c
000001d0: 268f b6bd 45a6 633e 656e c3bd 0d6f 4e3e
000001e0: 91f0 62bc 841d 85be 512c 6e3e b51a 3a3e
000001f0: f92b 5d3e 6d60 953e c205 41be 5503 d1be
00000200: ff22 023f 3b76 9e3b c0a5 72bd 907b edbd
00000210: 8456 94bd 5173 ed3b afd0 543e 2515 e53e
00000220: c5cf 973e 1163 f63e 3315 b83e 64d8 a53e
00000230: 8b2b 503e 2ed5 fa3d 508b f23c 8f68 c23d
00000240: ecf6 433e 44a5 b3be 383a 85be 1f65 a83e
00000250: ac40 833e a0f5 a43e ec55 debe 721d 72be
00000260: 8af5 843e 7b87 de3e 7896 583e 128c 1abf
00000270: 4a69 633e 349a ecbe 943f 3f3e 8220 bb3e
00000280: 7c9c 30be a9f8 9dbe c78d cdbd 7fde d43d
00000290: ef6a bebc 766b f0bd 26cc 28be 8e40 b2be
000002a0: 0c23 b23e 74e0 a73e cff0 383e 7327 333d
000002b0: 1a7f 53bf 8081 9cbe b881 473e 9025 7b3e
000002c0: 9f26 a73d fd7d a8be b8b5 04be 0c38 0b3e
000002d0: b187 bc3c fed7 e13d 61bf 2b3e 509f e3be
000002e0: ff2e f33c 6d0b 0fbd 72fb 013d 5bbf ecbc
000002f0: d99a f43c 3c1b c5be 85f0 723e 5238 193e
00000300: cd43 153d fff7 6c3d 3686 793e 1791 08be
00000310: fb50 143d 623d 213e 2111 323d d36c fdbd
00000320: 062e de3e 5726 bc3e 9968 bd3e 5df5 a53e
00000330: 2480 35bc cae9 e43d 9c40 1bbd e267 c73e
00000340: 80b6 e53d 1559 8d3e f318 963e 0a66 ab3e
00000350: 698d 273e ec50 d33c 962f fa3d faa3 c13e
00000360: 8a5e a23e 1f9e c43e baae ed3e 7d06 ba3e
00000370: 26de ff3d ce1a 393e 7ac0 9d3e 7a42 ff3e
00000380: 0de3 5bbd dd3b 76bd e070 14be c1cb 62be
00000390: 3065 72be ca89 9cbd f28a 6cbe 98c7 58be
000003a0: 532d 0a3e 78d5 683e 6809 953e 4b3a 483d
000003b0: 303c 703e 6ccf 1cbe 97ac fabd 82e1 a03e
000003c0: c3e7 853e 9da6 bcbe f0b7 84be 9159 f73d
000003d0: 91ae 843d 37a2 9d3e c070 d5be 38ff 98be
000003e0: 8927 a43e 7302 b53e ee4a 6a3e e9a7 83be
000003f0: b265 35bf 1e32 40be 7bca 7abc 0e65 7c3e

model.layers.0.atom_moment.radial_mlp.0_0_0.layers.2.bias f4 [16]
0.115448676 -0.19309741 0.21360768 -0.0890657 0.09884869 -0.10893241 -0.13074493 -0.115064
0.034931324 -0.05153488 -0.006491735 0.13870834 0.09089331 0.09707855 0.011825899 0.16591437
00000000: 5b70 ec3d 54bb 45be f9bb 5a3e 1468 b6bd
00000010: 2f71 ca3d f517 dfbd 00e2 05be ada6 ebbd
00000020: 2614 0f3d 3d16 53bd 9fb8 d4bb 8f09 0e3e
00000030: 4626 ba3d 1ed1 c63d 6ac1 413c 75e5 293e

model.layers.0.atom_moment.radial_mlp.0_0_0.layers.4.weight f4 [17, 16]
-0.081075534 0.13504438 -0.09795334 -0.071473196 -0.1933085 0.13938779 0.49957487 0.35601786
-0.34491065 -0.18887338 0.0095741665 0.2076362 -0.44091138 -0.097352564 0.3384536 0.043355376
0.051419694 -0.40172756 -0.33549505 0.19319881 -0.09156204 -0.22904941 0.08983039 -0.18996747
0.19763659 -0.46096477 -0.15634724 0.03150443 0.3385233 0.437321 0.15754457 -0.34928507
0.31771082 -0.2138313 0.11232604 -0.27376577 -0.03866262 -0.276573 -0.20325327 -0.113606706
0.18455549 0.08307287 0.07127191 0.17389469 -0.0386351 0.051269956 -0.110754564 0.0030979826
0.068193175 -0.18709041 -0.27790996 0.014274575 0.24683392 -0.003869137 0.009741983 -0.2724358
0.13855085 0.07915768 -0.21822737 -0.17004144 -0.234196 0.035231974 0.08357451 -0.077213235
0.18783909 0.10170312 0.4035097 0.042456415 -0.0848031 0.021584414 -0.0039178235 -0.14557928
-0.20588955 0.3060965 0.31913093 0.026820587 0.1153382 -0.366055 0.023094088 0.18298197
0.103502646 0.11798476 -0.12855262 -0.14282246 -0.15507497 0.54027003 0.3695167 -0.020004371
-0.035591066 0.031864215 0.25174773 -0.12660322 -0.5536763 -0.18077378 -0.020088607 -0.2261382
0.45004705 0.211899 0.4160064 -0.26448295 0.0545762 0.2628139 0.3021516 0.015061987
0.078703895 0.20923135 0.15626115 0.3612217 -0.031034335 -0.053905666 0.15508541 0.35936445
-0.00033120447 0.13737938 0.20777294 0.22573498 0.006478034 0.094455615 -0.023350546 0.17028317
0.5971876 -0.10974766 0.047009073 -0.007892411 0.117012314 0.38939482 0.052538197 -0.07938392
-0.12568347 -0.052129492 -0.18944076 0.03833188 0.1812399 -0.21593703 -0.2921511 0.051091198
0.101276346 -0.12356954 -0.16317676 -0.15415001 0.17265055 0.17166781 -0.10629166 -0.14091544
0.047325276 0.1646823 0.015443819 0.10895618 -0.18917243 -0.17598404 0.25883856 -0.04417534
0.1378994 -0.1446944 -0.0128394095 -0.07922179 -0.15802681 0.11355674 0.21003158 -0.10676918
0.26168194 0.3224054 -0.018957473 -0.16777152 -0.16270812 0.31484073 -0.00950931 0.35437593
0.13979396 0.1270534 0.12472736 -0.029911842 0.06314628 -0.24453083 -0.0011063626 0.15795715
0.23217946 -0.066268906 0.26965138 -0.026112592 -0.051298957 0.023582831 -0.21157148 -0.07558721
-0.08343373 -0.00043603868 -0.2181216 0.08634016 -0.22979057 -0.046814874 0.00015627214 0.16853487
0.044242647 -0.51830024 -0.04763562 -0.18512948 0.22567582 -0.04028655 0.41673645 0.122006625
-0.25601754 -0.35310647 -0.14253406 0.10572583 -0.44155398 -0.28822726 -0.10259036 -0.36625257
-0.480941 -0.19138284 -0.30663696 0.2107098 0.005118603 -0.23432137 -0.029323537 -0.048518818
-0.0065978854 -0.26912212 -0.13374965 -0.13358368 0.21145567 0.15602943 -0.015387164 -0.024517478
-0.4067168 -0.028333409 -0.26973253 0.034977466 -0.089042455 -0.1874056 -0.01269345 0.0739232
0.29890862 -0.12126796 -0.2199401 -0.28327614 0.04251697 0.013735341 0.057455204 -0.31431636
-0.08938948 0.11680603 -0.03404218 -0.14750215 -0.12736726 0.3778048 0.28453916 0.08665117
0.24783975 -0.095792435 -0.23660743 0.117244676 -0.006529088 0.18195124 0.33896193 0.0953148
00000000: ee0a a6bd 1349 0a3e c39b c8bd 8a60 92bd
00000010: aaf2 45be acbb 0e3e 47c8 ff3e f947 b63e
00000020: 2198 b0be 0668 41be f7dc 1c3c 969e 543e
00000030: 23bf e1be c860 c7bd ca49 ad3e 6895 313d
00000040: 759d 523d 3caf cdbe 02c6 abbe e9d5 453e
00000050: e184 bbbd ee8b 6abe fff8 b73d d586 42be
00000060: 3f61 4a3e 9303 ecbe 7e19 20be ca0a 013d
00000070: ed52 ad3e 8ae8 df3e 5d53 213e 7ed5 b2be
00000080: feaa a23e 98f6 5abe 320b e63d 072b 8cbe
00000090: b25c 1ebd fa9a 8dbe a021 50be a2aa e8bd
000000a0: 1dfc 3c3e 1c22 aa3d 02f7 913d 7311 323e
000000b0: d73f 1ebd 7200 523d 4ad3 e2bd 8607 4b3b
000000c0: dda8 8b3d a194 3fbe 374a 8ebe e8df 693c
000000d0: 08c2 7c3e 5991 7dbb d79c 1f3c b57c 8bbe
000000e0: 46e0 0d3e 6c1d a23d ff76 5fbe 581f 2ebe
000000f0: 14d1 6fbe 674f 103d 1d29 ab3d f921 9ebd
00000100: e458 403e ba49 d03d d398 ce3e c7e6 2d3d
00000110: 3fad adbd ccd1 b03c 1661 80bb bc12 15be
00000120: b6d4 52be aeb8 9c3e 2165 a33e d9b6 db3c
00000130: 6f36 ec3d 906b bbbe d02f bd3c a05f 3b3e
00000140: 32f9 d33d fea1 f13d 4ca3 03be 0d40 12be
00000150: f9cb 1ebe 234f 0a3f 4b31 bd3e 35e0 a3bc
00000160: f0c7 11bd 0d84 023d 14e5 803e 46a4 01be
00000170: bbbd 0dbf c31c 39be dd90 a4bc c690 67be
00000180: 916c e63e 0dfc 583e cafe d43e 4f6a 87be
00000190: 4b8b 5f3d 8b8f 863e 9db3 9a3e 8dc6 763c
000001a0: 822f a13d be40 563e ec02 203e 0df2 b83e
000001b0: b83b febc 30cc 5cbd b6ce 1e3e 9efe b73e
000001c0: 83a5 adb9 2ead 0c3e 6ec2 543e 1227 673e
000001d0: b045 d43b f271 c13d a549 bfbc b65e 2e3e
000001e0: 49e1 183f 62c3 e0bd 968c 403d 2c4f 01bc
000001f0: 27a4 ef3d c25e c73e 4b32 573d 0994 a2bd
00000200: 2bb3 00be bc85 55bd c2fc 41be e401 1d3d
00000210: f496 393e 991e 5dbe d494 95be 0145 513d
00000220: f969 cf3d 0712 fdbd cf17 27be 80d9 1dbe
00000230: 4ecb 303e b0c9 2f3e 71af d9bd 234c 10be
00000240: 26d8 413d 7aa2 283e 1208 7d3c 6b24 df3d
00000250: 6bb6 41be 2935 34be 7d86 843e 34f1 34bd
00000260: 8035 0d3e c52a 14be 635c 52bc 093f a2bd
00000270: c8d1 21be 7090 e83d 8512 573e cda9 dabd
00000280: 2dfb 853e 5212 a53e b44c 9bbc 4ccc 2bbe
00000290: f59c 26be ce32 a13e f0cc 1bbc c370 b53e
000002a0: 2626 0f3e 491a 023e 0f71 ff3d ae09 f5bc
000002b0: d652 813d 4a66 7abe 5e03 91ba 85bf 213e
000002c0: 74c0 6d3e feb7 87bd bf0f 8a3e 13ea d5bc
000002d0: db1e 52bd c830 c13c 32a6 58be 78cd 9abd
000002e0: 4edf aabd 1f9c e4b9 455b 5fbe 1cd3 b03d
000002f0: 384e 6bbe f4c0 3fbd fcdc 2339 6894 2c3e
00000300: c737 353d 53af 04bf 911d 43bd 9592 3dbe
00000310: 9017 673e 8203 25bd 7b5e d53e 9cde f93d
00000320: bb14 83be 5fca b4be 73f4 11be c986 d83d
00000330: 5d13 e2be 8692 93be e51a d2bd 7585 bbbe
00000340: e63d f6be ddf9 43be 85ff 9cbe 4fc4 573e
00000350: f4b9 a73b f1f1 6fbe ea37 f0bc abbb 46bd
00000360: 1333 d8bb 60ca 89be abf5 08be 29ca 08be
00000370: d687 583e 2ec6 1f3e 721a 7cbc e1d8 c8bc
00000380: 2f3d d0be 771b e8bc 621a 8abe 8844 0f3d
00000390: e45b b6bd 41e7 3fbe 30f8 4fbc 0c65 973d
000003a0: 8d0a 993e 565b f8bd fa37 61be 9209 91be
000003b0: 4626 2e3d 320a 613c 2656 6b3d 13ee a0be
000003c0: d511 b7bd 0038 ef3d d06f 0bbd ce0a 17be
000003d0: 906c 02be a16f c13e 1eaf 913e 2b76 b13d
000003e0: b4c9 7d3e d32e c4bd 3849 72be fa1d f03d
000003f0: f6f1 d5bb 6d51 3a3e 6b8c ad3e 6834 c33d

model.layers.0.atom_moment.radial_mlp.0_0_0.layers.4.bias f4 [17]
0.1722049 -0.03461849 -0.15229148 0.08819216 -0.0031941626 0.17286424 -0.05771078 -0.03325735
0.051576827 0.030767696 0.030467357 -0.13200401 0.06796954 0.11505966 0.19929624 -0.03557473
0.05513167
00000000: 7b56 303e 1ecc 0dbd 4cf2 1bbe 179e b43d
00000010: 2855 51bb 5303 313e 2462 6cbd dc38 08bd
00000020: 3942 533d 890c fc3c ae96 f93c 0f2c 07be
00000030: 9d33 8b3d 66a4 eb3d 5014 4c3e cfb6 11bd
00000040: bfd1 613d

model.layers.0.atom_moment.radial_mlp.1_0_1.layers.0.weight f4 [16, 17]
-0.31709194 0.30625898 0.14553109 0.054422647 0.425151 -0.28331634 -0.355998 0.18641412
0.18346114 -0.40643013 -0.08267821 -0.095801495 0.3368565 0.06428775 -0.08847871 -0.5041096
-0.07523455 -0.33610916 0.06500253 0.48921925 0.093652 0.4600712 0.24691296 0.07530283
0.034155715 -0.22670144 -0.045058977 -0.2053435 -0.06365294 0.0012353756 0.28007388 0.0263192
-0.08413077 -0.01560428 -0.29070336 0.4505732 0.41313627 0.37140512 -0.15551302 0.2939857
0.16207555 0.49366692 -0.13685113 0.5857174 0.39800486 0.34076208 0.113530286 -0.048821494
-0.009769566 -0.20370196 0.5818308 0.09713355 0.15476036 0.6006107 -0.60885376 -0.3770508
0.30580592 0.39395142 -0.35327289 0.21057506 -0.016912969 -0.33859986 0.08121025 -0.35454082
-0.066958696 0.059801884 0.7860831 0.06985285 -0.25479195 0.45109427 0.33427534 0.361051
0.2485561 -0.040660042 -0.12806718 0.0684119 0.2160497 -0.2198646 0.08026731 -0.5671549
-0.1232587 0.1921699 -0.14574288 -0.26677737 -0.23059489 0.0040739668 -0.030606637 0.5449498
-0.7077974 -0.43112412 0.49982268 0.10083009 -0.32677186 -0.18524192 0.030285819 -0.3145134
0.021550648 -0.33325183 0.0016547674 -0.22387545 -0.060723238 -0.16740279 0.103279285 -0.022446575
0.23839353 -0.03566723 0.09680245 0.33433053 0.1991274 -0.1893756 0.14964016 0.4733781
-0.4213798 0.13899516 -0.30978128 -0.45616528 -0.32854855 0.18607421 -0.008734481 -0.30701613
0.37972015 0.3378918 -0.2259836 -0.12029703 0.13775475 -0.094360396 -0.7869862 0.33568648
0.14768201 -0.42945632 0.36434698 0.14034346 -0.09525883 -0.07324674 0.058587473 0.6036908
-0.29650804 0.17775683 0.09201573 0.36346895 0.18863739 -0.2662015 -0.063624576 0.0371281
-0.14656098 -0.058244225 -0.12526423 -0.30475724 0.04667198 -0.24826585 -0.0354694 -0.16720387
0.02478874 0.046587314 0.20972346 -0.25196713 -0.17243846 0.23023203 -0.14742078 0.13266273
-0.21358979 0.34823367 0.0041487617 -0.24561968 0.10944076 -0.005283068 -0.09610065 0.112536214
-0.013072737 0.115375996 0.5046049 -0.2611809 0.33223885 -0.32504252 -0.74032015 0.61090183
0.15789999 0.21813251 0.108143285 -0.22036283 -0.18014567 -0.040372737 -0.48506674 -0.35871652
0.25484645 -0.009426694 -0.40290543 0.168144 0.020674111 -0.14938183 0.21736461 -0.10538001
0.19686179 -0.25020254 -0.83752555 0.39377263 0.21996877 -0.22226708 0.066742845 0.10945079
-0.1972221 -0.61423546 0.20795849 0.21418977 0.5759635 0.14651228 0.07128586 -0.07956185
-0.25332725 0.44454482 0.31081614 0.17053333 0.11475262 -0.054455366 0.050446518 0.07326522
-0.5579437 -0.2660723 0.15986247 0.2649238 -0.5208114 0.5577145 0.003386384 -0.5274022
0.043407302 -0.35631296 0.2828955 0.11184711 0.31445816 -0.09653037 -0.586917 0.2154135
-0.03457262 -0.19514887 -0.27884474 0.2312697 0.2068318 -0.13876218 0.43954858 -0.20356143
0.42421663 -0.42012385 -0.5684487 0.43364727 0.15123585 0.08753062 0.041066725 -0.44461536
-0.1797835 0.07487633 -0.28256366 -0.2769997 -0.023148144 0.05663799 -0.32133707 -0.5409853
00000000: e059 a2be facd 9c3e 1a06 153e 48ea 5e3d
00000010: 64ad d93e d70e 91be 5f45 b6be 58e3 3e3e
00000020: 3ddd 3b3e 9c17 d0be 3253 a9bd 9333 c4bd
00000030: 7578 ac3e 4ca9 833d 5334 b5bd 540d 01bf
00000040: 9214 9abd 8016 acbe 0c20 853d f27a fa3e
00000050: 9fcc bf3d 748e eb3e c0d6 7c3e 5f38 9a3d
00000060: dde6 0b3d 6c24 68be c38f 38bd 9145 52be
00000070: 795c 82bd 54ec a13a d865 8f3e 5d9b d73c
00000080: c14c acbd 18a9 7fbc 12d7 94be 88b1 e63e
00000090: 9986 d33e d028 be3e ce3e 1fbe 4b85 963e
000000a0: 22f7 253e e9c1 fc3e b422 0cbe 93f1 153f
000000b0: 4bc7 cb3e 5e78 ae3e 9182 e83d 0cf9 47bd
000000c0: 8810 20bc 3f97 50be ddf2 143f f4ed c63d
000000d0: 8079 1e3e 9fc1 193f d7dd 1bbf cd0c c1be
000000e0: 9892 9c3e 00b4 c93e 2fe0 b4be fda0 573e
000000f0: 118d 8abc f65c adbe 8f51 a63d 6086 b5be
00000100: a421 89bd d2f2 743d be3c 493f 030f 8f3d
00000110: 1774 82be d4f5 e63e 2326 ab3e addb b83e
00000120: 7e85 7e3e 258b 26bd 0b24 03be 8a1b 8c3d
00000130: 223c 5d3e 3024 61be 3063 a43d 1031 11bf
00000140: 0f6f fcbd 30c8 443e 9f3d 15be 0b97 88be
00000150: 1121 6cbe e97e 853b c5ba fabc d581 0b3f
00000160: 3632 35bf 4dbc dcbe c2e8 ff3e 0280 ce3d
00000170: a44e a7be 0fb0 3dbe f719 f83c e607 a1be
00000180: fc8a b03c fc9f aabe c8e4 d83a 9b3f 65be
00000190: eeb8 78bd a36b 2bbe 1784 d33d e1e1 b7bc
000001a0: 6f1d 743e cd17 12bd 5d40 c63d 5f2d ab3e
000001b0: 0ee8 4b3e adeb 41be 453b 193e 9d5e f23e
000001c0: 18bf d7be bf54 0e3e a79b 9ebe 7f8e e9be
000001d0: 8437 a8be 3d8a 3e3e 121b 0fbc 3831 9dbe
000001e0: ae6a c23e 2700 ad3e 3f68 67be 4a5e f6bd
000001f0: 950f 0d3e 0640 c1bd ed77 49bf 19df ab3e
00000200: f439 173e b3e1 dbbe b08b ba3e 32b6 0f3e
00000210: 1017 c3bd 6302 96bd 6bf9 6f3d 7b8b 1a3f
00000220: e7cf 97be e305 363e be72 bc3d 9a18 ba3e
00000230: 292a 413e 904b 88be 9a4d 82bd a213 183d
00000240: 1514 16be 7f91 6ebd 4445 00be 2409 9cbe
00000250: 1e2b 3f3d 6739 7ebe 5d48 11bd 7e37 2bbe
00000260: c111 cb3c 57d2 3e3d bfc1 563e d601 81be
00000270: b593 30be f2c1 6b3e 79f5 16be bdd8 073e
00000280: 48b7 5abe af4b b23e 56f2 873b ba83 7bbe
00000290: 7a22 e03d 961d adbb 6bd0 c4bd 6379 e63d
000002a0: 082f 56bc 404a ec3d c92d 013f 81b9 85be
000002b0: 361b aa3e f96b a6be 9f85 3dbf 1064 1c3f
000002c0: 89b0 213e 215e 5f3e 3a7a dd3d cba6 61be
000002d0: 1b78 38be e25d 25bd ab5a f8be b1a9 b7be
000002e0: 3c7b 823e 6c72 1abc 9f49 cebe f12d 2c3e
000002f0: c15c a93c 8df7 18be d494 5e3e 7ad1 d7bd
00000300: 2396 493e 8c1a 80be 1368 56bf 919c c93e
00000310: 7e3f 613e fb99 63be 79b0 883d bc27 e03d
00000320: 97f4 49be 893e 1dbf 12f3 543e 9054 5b3e
00000330: 5872 133f 5107 163e 52fe 913d 53f1 a2bd
00000340: 1cb4 81be 619b e33e 4b23 9f3e 4aa0 2e3e
00000350: 6c03 eb3d 970c 5fbd 02a1 4e3d 130c 963d
00000360: 66d5 0ebf a13a 88be fdb2 233e 18a4 873e
00000370: e553 05bf 61c6 0e3f 19ee 5d3b d503 07bf
00000380: dbcb 313d a76e b6be aed7 903e 1910 e53d
00000390: a900 a13e b7b1 c5bd 3140 16bf 5b95 5c3e
000003a0: 059c 0dbd 1bd5 47be bdc4 8ebe f7d1 6c3e
000003b0: b7cb 533e ac17 0ebe 830c e13e 6872 50be
000003c0: ec32 d93e 791a d7be db85 11bf 0407 de3e
000003d0: 92dd 1a3e 4143 b33d 9535 283d a0a4 e3be
000003e0: 2a19 38be c358 993d 2fac 90be e8d2 8dbe
000003f0: 2da1 bdbc 3dfd 673d 4b86 a4be 037e 0abf

model.layers.0.atom_moment.radial_mlp.1_0_1.layers.0.bias f4 [16]
0.03253303 0.05100649 0.06069448 0.30094302 0.023622409 -0.025132004 0.27135816 0.04133585
0.18520774 -0.27769482 0.07746082 0.17694888 0.2585438 -0.07010071 0.18478078 0.24904945
00000000: 5b41 053d 2eec 503d c69a 783d 3415 9a3e
00000010: c883 c13c a2e1 cdbc 75ef 8a3e c84f 293d
00000020: 19a7 3d3e 042e 8ebe c7a3 9e3d 1632 353e
00000030: da5f 843e f690 8fbd 2c37 3d3e d206 7f3e

model.layers.0.atom_moment.radial_mlp.1_0_1.layers.2.weight f4 [16, 16]
0.17796613 0.26731178 0.42108008 0.10407002 -0.0029498797 -0.25432748 0.049965665 -0.5270767
0.16935708 0.10178204 -0.051537313 -0.30232054 -0.4142085 -0.104652844 -0.07701305 -0.10407984
-0.24557716 -0.052571446 -0.53062093 -0.23853454 -0.11161915 -0.4784937 0.16089518 -0.010901191
0.21601611 -0.18406114 -0.01774607 0.22549084 0.17541003 0.3755307 -0.21746135 -0.35450476
-0.10066983 -0.14477044 -0.18344188 -0.40416816 -0.018725138 -0.2952471 0.11688646 0.088638425
-0.167269 -0.03245228 0.22075085 0.18406372 -0.17159216 0.098261535 -0.23340213 -0.15095018
-0.103228845 -0.019236693 0.08423392 0.38476643 -0.22290504 -0.37551126 -0.011925438 -0.55958396
-0.30062604 0.050178852 -0.29477954 -0.47377756 -0.3211372 0.078475915 0.025247136 0.054380726
0.23198389 -0.08656466 0.23148102 0.29499504 0.15359615 -0.05872732 -0.19320814 -0.58818096
0.18069391 -0.06685363 -0.3306484 -0.33159146 0.039185192 -0.24530837 -0.2751628 0.3030089
-0.5270019 -0.7134071 -0.63744164 0.15182588 -0.1737482 -0.057152 0.08784149 0.109976284
-0.15916765 -0.08893934 0.034844864 0.4236349 -0.17540793 -0.24362497 0.05037469 -0.4710815
-0.27672532 -0.24195357 -0.51568854 -0.034314133 -0.08024788 0.34228277 -0.1680242 0.16991398
-0.18762939 -0.12813216 0.3407012 0.05629541 0.3588343 0.39985114 0.21911977 -0.014319897
0.28521976 0.3117646 -0.7187187 0.24514805 0.41436166 -0.09259818 -0.02051236 -0.4404688
0.06273801 -0.23797975 -0.07304036 -0.41564098 -0.19047552 -0.31441614 -0.17706572 0.32516342
-0.26542166 -0.24765114 -0.2747218 -0.5093252 -0.087375544 -0.19899164 -0.29325455 0.36539462
-0.22725081 -0.13718227 0.42030114 0.049165364 0.25355157 0.2837635 0.36214992 -0.121226564
0.3181449 0.0075035873 0.6581574 -0.52476007 0.37759522 -0.40869272 -0.42421538 -0.5676088
0.020275237 -0.303987 -0.4309247 -0.15378504 -0.1751418 -0.36644864 -0.48429886 0.47692025
-0.26822194 -0.009671929 -0.62003064 -0.4031138 0.0032229766 -0.43783948 -0.27187923 -0.046149876
-0.08272307 -0.09726701 0.20066516 -0.052516572 0.37977612 0.22779286 0.12628874 0.0032055748
-0.1191705 0.08850426 -0.42185554 -0.51892924 0.34480226 -0.15195419 -0.39422378 -0.2966917
0.2493499 0.04603662 0.21824592 0.16792366 0.19783166 0.32307133 0.1151005 -0.36128503
-0.36400646 -0.30641568 -0.26171768 -0.16673097 -0.19169493 -0.28639248 0.39980865 -0.24558681
0.06360351 -0.32799155 -0.13352671 0.13404079 0.24012466 0.0106542045 -0.22385103 -0.15724537
0.0958892 0.21440445 -0.26948813 -0.5805094 0.11432391 -0.27739212 -0.21874574 -0.4114771
-0.14507607 -0.09436806 0.014124639 -0.54927254 0.24489808 -0.18389285 0.08715653 0.22115001
0.1000207 0.21520229 0.30033213 -0.20501812 0.22719613 -0.26269254 -0.13964646 -0.58314216
0.24240153 -0.35503402 -0.45375678 -0.424285 -0.39267492 -0.042383708 -0.11049726 0.23251575
0.04961775 0.039613288 -0.47056618 -0.44315508 0.18931831 -0.25934485 0.11168214 -0.36439934
0.26620367 -0.13934131 -0.3968387 0.07195919 0.048712123 -0.17946936 -0.33615962 -0.19198872
00000000: c13c 363e 17dd 883e cf97 d73e aa22 d53d
00000010: c552 41bb 3637 82be cca8 4c3d 80ee 06bf
00000020: f16b 2d3e 1a73 d03d ca18 53bd c2c9 9abe
00000030: 2313 d4be 3b54 d6bd 05b9 9dbd d027 d5bd
00000040: 9478 7bbe 2855 57bd c6d6 07bf 6642 74be
00000050: 9598 e4bd 20fd f4be b5c1 243e e99a 32bc
00000060: 5433 5d3e 867a 3cbe 3560 91bc 12e7 663e
00000070: b09e 333e 8f45 c03e 30ae 5ebe a681 b5be
00000080: fc2b cebd b43e 14be 30d8 3bbe 21ef cebe
00000090: 7665 99bc a12a 97be 2b62 ef3d 1088 b53d
000000a0: 9148 2bbe afec 04bd 830c 623e 337b 3c3e
000000b0: dbb5 2fbe 583d c93d f800 6fbe af92 1abe
000000c0: a569 d3bd 4596 9dbc d582 ac3d 1b00 c53e
000000d0: 3841 64be 0343 c0be ea62 43bc e540 0fbf
000000e0: a8eb 99be 5788 4d3d 58ed 96be f992 f2be
000000f0: 186c a4be fbb7 a03d 15d3 ce3c 53be 5e3d
00000100: 2f8d 6d3e d048 b1bd 5c09 6d3e 9709 973e
00000110: 4f48 1d3e 0f8c 70bd 5bd8 45be 0793 16bf
00000120: d307 393e 8eea 88bd bf4a a9be 5bc6 a9be
00000130: a780 203d 1e32 7bbe 23e2 8cbe fc23 9b3e
00000140: 99e9 06bf d9a1 36bf 602f 23bf 3e78 1b3e
00000150: 0ceb 31be 3718 6abd 3de6 b33d 3f3b e13d
00000160: d8fc 22be d425 b6bd 7db9 0e3d ace6 d83e
00000170: 239e 33be d378 79be b155 4e3d 9831 f1be
00000180: f1ae 8dbe adc2 77be 2a04 04bf fa8c 0cbd
00000190: 0059 a4bd b03f af3e 890e 2cbe eefd 2d3e
000001a0: eb21 40be 1435 03be 6370 ae3e 0496 663d
000001b0: 21b9 b73e 4ab9 cc3e ef60 603e 009e 6abc
000001c0: 5308 923e 9c9f 9f3e f3fd 37bf 1708 7b3e
000001d0: 3627 d43e 1da4 bdbd 8909 a8bc 2085 e1be
000001e0: c97c 803d f7b0 73be 2f96 95bd e5ce d4be
000001f0: 040c 43be 27fb a0be b750 35be d27b a63e
00000200: 59e5 87be 4398 7dbe 56a8 8cbe 2363 02bf
00000210: f3f1 b2bd 77c4 4bbe 7625 96be 0115 bb3e
00000220: 70b4 68be 8279 0cbe b631 d73e 9f61 493d
00000230: 83d1 813e 7349 913e b76b b93e a245 f8bd
00000240: e3e3 a23e a7e0 f53b 017d 283f ad56 06bf
00000250: 2954 c13e 2c40 d1be c232 d9be cf4e 11bf
00000260: 4118 a63c 2fa4 9bbe 2aa2 dcbe d379 1dbe
00000270: 5f58 33be 289f bbbe 05f6 f7be e42e f43e
00000280: 6354 89be 0377 1ebc 54ba 1ebf ef64 cebe
00000290: 9338 533b 7f2c e0be c133 8bbe a707 3dbd
000002a0: b76a a9bd ed33 c7bd 2b7b 4d3e 9e1b 57bd
000002b0: 0472 c23e 8842 693e d651 013e 9f14 523b
000002c0: aa0f f4bd b941 b53d 73fd d7be 8cd8 04bf
000002d0: ec89 b03e e199 1bbe b3d7 c9be f9e7 97be
000002e0: 9555 7f3e e590 3c3d dc7b 5f3e 2ef4 2b3e
000002f0: 6294 4a3e 9b69 a53e d0b9 eb3d 5afa b8be
00000300: 0e5f babe 84e2 9cbe dcff 85be 86bb 2abe
00000310: ad4b 44be 09a2 92be b8b3 cc3e 1c7b 7bbe
00000320: 8f42 823d 82ee a7be 3abb 08be fd41 093e
00000330: 3de3 753e f98e 2e3c 3439 65be ee04 21be
00000340: 8f61 c43d d78c 5b3e 59fa 89be 449c 14bf
00000350: a722 ea3d 5706 8ebe e2fe 5fbe 20ad d2be
00000360: d28e 14be 0b44 c1bd 086b 673c 209d 0cbf
00000370: 90c6 7a3e 684e 3cbe 1f7f b23d 2675 623e
00000380: a7d7 cc3d fd5d 5c3e 22c5 993e 45f0 51be
00000390: 1aa6 683e a37f 86be 7bff 0ebe ce48 15bf
000003a0: 1b38 783e 05c7 b5be cf52 e8be e23b d9be
000003b0: b00c c9be 8a9a 2dbd 634c e2bd 9c18 6e3e
000003c0: fb3b 4b3d 8b41 223d 0dee f0be 39e5 e2be
000003d0: a9dc 413e d9c8 84be 9bb9 e43d 8d92 babe
000003e0: d94b 883e 7daf 0ebe 712e cbbe 575f 933d
000003f0: 5d86 473d d1c6 37be 1d1d acbe b198 44be

model.layers.0.atom_moment.radial_mlp.1_0_1.layers.2.bias f4 [16]
0.31192955 0.17931801 0.0071119796 0.29164088 0.003951641 0.23839411 0.14488444 -0.30204305
0.064763196 0.2853794 0.1801592 0.10491719 0.07743038 -0.0039619277 0.11247249 0.13611351
00000000: 3bb5 9f3e 249f 373e 9c0b e93b f451 953e
00000010: c47c 813b 961d 743e 965c 143e 63a5 9abe
00000020: 91a2 843d 401d 923e a77b 383e d3de d63d
00000030: d293 9e3d 0fd3 81bb fa57 e63d 5761 0b3e
